bestmodel/best_model.pth (torch, 73828 bytes, 7 tensors)

lstm.weight_ih_l0 f4 [256, 1]
00000000: b01e 5dbc e158 a6bd 1414 5b3e f196 f7bb
00000010: 62db 903d 0b6e dd3d 2613 963c 9b60 2e3b
00000020: c40a c3bc b815 603d 047d ec3d 87df 8e3d
00000030: b20c 173b 74de dd3d 35b4 74bd cac5 193e
00000040: 4483 38bd 067b a4bc 1587 0b3d bf6c 273c
00000050: e5bf 353d c62c e9bc e044 f73c 535e f73d
00000060: 7c74 ebbc 9415 68bc fd26 833d 9ed4 b33d
00000070: c95c 123e 2762 b33d 1ca2 7e3d 4631 9cbb
00000080: 9590 ac3d 301f c53c e597 833d c08f 123e
00000090: 99da d33d e08d a63d 7e66 3b3c cd86 65bd
000000a0: 438f c13c c2d8 453d b131 cd3d ac5f 4abd
000000b0: 2f7e e73d 55f4 c63d e165 423e c9b5 27bc
000000c0: d0f1 a13c f043 e33c b18d 1ebb 34a4 2a3d
000000d0: 0008 0c3d 90cc 0d3e ab62 77bc 0a9d 213e
000000e0: 2e30 d8bd 51c7 91bd 7019 143e 1183 79bd
000000f0: 8232 88bd 5d47 ec3d fe5c 64bd ebbf 8ebc
00000100: 97a0 d1bc fac9 e33c 6e27 2e3e 7808 2f3e
00000110: 1d73 8b3d 0d22 c93d ebff 99ba 9171 833c
00000120: 4e65 163d 5722 64bd 069e bb3b 0e5e 6a3c
00000130: 8237 22bd ea8f 973d e059 b9bd 9de2 313e
00000140: 3c86 1cbd 321f e4bd b470 37bd 9e78 d13d
00000150: 5efb cf3d 9db4 a33c bc21 a1bd 710b 2c3e
00000160: b1c6 acbd d18f bbbd ed29 b73b 1bb3 083e
00000170: 1628 d43c c5e9 283c 0eaa 0d3c 8a64 1bbe
00000180: 6083 cd3d 4333 92bc 10f2 d13d ef8c da3d
00000190: 787e 603d e392 ef3d 7705 b1bb 4723 d5bd
000001a0: 047f b73d 12fc a1bd 7f51 9d3d f149 0d3d
000001b0: ef6e cd3d c0e8 163e efcb 1c3e d44f f7bd
000001c0: a5dc d0bb 624f 743d 7776 1f3e 8c87 c6bd
000001d0: 8292 0f3e fb2e 79bb ee73 31bd 0773 4a3d
000001e0: 543a 4dbc 1fd1 c7bd 1bfe c23d 72c6 78bc
000001f0: 8491 fbbb a25d 963d 3e43 a9bd 2016 043d
00000200: 2976 99bd fdbc eb3c 00fc ea3d 2133 073e
00000210: 3344 723c 02d6 b43d 245c 17bd 985e 253d
00000220: 44e2 ca3d 9bf0 1fbe 6ccb 0e3d ebc8 963d
00000230: ef21 31be b5a4 e33d 60d8 9abd 0a3a 503d
00000240: bf8e b03d 7a8d c9bd 8e50 05be 9cf9 353d
00000250: 4818 713d e3b0 00bd 4916 98bd 9427 7d3d
00000260: ac48 6abd 5c5b b6bd eee2 d03d fa9c 7b3d
00000270: 966b 863d 868e 4cbd 57ec d13d 7771 003e
00000280: 9426 d7bc f254 92bd 3cbe be3d 446d a63d
00000290: c9c3 c83d c588 82bd 8cc2 1a3e f4e6 1bbe
000002a0: a658 143d 4f73 abbd 74e6 793c 83d1 25be
000002b0: 843b bfbd 1f6c d03d 00c4 873d f952 97bd
000002c0: 1f30 5cbb 4553 e73d c80a 9e3d b44c 963d
000002d0: a25a cf3d 7f18 b33d 93a7 a43d 5626 a93d
000002e0: 3610 ad3d 5e8a 06be ab5b 823d 3a6e 60bd
000002f0: a0bd 12be f8d5 a53d 4a2e 09be 06ff 72bc
00000300: 9271 8cbd f9ca 17bb 82e1 d73d 366d cd3d
00000310: de9f e03d 8e5e c23c 5d83 5e3c c386 073e
00000320: 4c9a 3e3e 192d f6bd 6ebe 9a3d 87f1 803e
00000330: 3845 1bbd caec 993c 72e2 ccbd 4f83 1b3d
00000340: 0514 41bd f4c8 8cbc 106c 6cbd 21a3 0b3d
00000350: e296 413e 76f3 a0bd 4f19 dfbb 1d40 393e
00000360: 8887 1bbd 51dc 97bd 2a9b 883d 3ef9 0a3e
00000370: 0bf3 cd3d 768c 1dbc 122d 1c3e 15dd 3dbe
00000380: ce3b 62bc f87f cd3c c559 253d 7182 9c3d
00000390: 0a94 8a3d 760c 1e3e e71a f73c 48ee 11be
000003a0: ce16 263e 0b7c c7bd 501b 5c3d 845a 02be
000003b0: ccf3 b73d 5ac0 6d3e b14d 3e3e 0484 52bc
000003c0: 09ac 39bc 2a0b 7d3e 6565 7a3e 1039 123d
000003d0: 151c 803e af95 463e dfb2 32be b7f1 f23d
000003e0: 0415 5cbc f89c 153d b7ed 803d 6008 06be
000003f0: a6d7 29bb d2c1 583e 0809 92bd 3efa 68bd
-0.013496086 -0.08122421 0.21394378 -0.0075558354 0.07073094 0.10812005 0.018319678 0.0026607874
-0.023808844 0.054708213 0.11547282 0.06976228 0.0023048338 0.10833445 -0.05974217 0.15016857
-0.04504706 -0.020078193 0.03406437 0.010218798 0.044372458 -0.028463732 0.03018421 0.12078538
-0.028742068 -0.014165301 0.06403921 0.08780788 0.14293207 0.087589554 0.06216632 -0.004766616
0.08426014 0.024062723 0.06425456 0.14312649 0.103444286 0.08132529 0.01143801 -0.05603676
0.023627883 0.04830242 0.100192435 -0.049407646 0.113033645 0.097145714 0.18984176 -0.010236212
0.019768625 0.027742356 -0.0024193341 0.041660503 0.034187317 0.13847566 -0.015099208 0.15782562
-0.105560645 -0.07118095 0.14462829 -0.06091601 -0.066502586 0.11537049 -0.055752747 -0.017425498
-0.02558927 0.02780627 0.17007229 0.17093074 0.068090655 0.09820948 -0.0011749243 0.016045364
0.036717705 -0.05569681 0.005725625 0.014304651 -0.039603718 0.07400496 -0.090503454 0.17371602
-0.038213953 -0.111387625 -0.044785216 0.10228084 0.10155366 0.019983584 -0.078677624 0.1680124
-0.08436335 -0.0915829 0.0055897147 0.13349573 0.02589802 0.010309641 0.008646501 -0.15175071
0.100348234 -0.01784671 0.10251248 0.10671412 0.05480811 0.11697938 -0.005402263 -0.10407119
0.08959773 -0.07909407 0.0768156 0.034494344 0.100309245 0.14737225 0.1531217 -0.12075773
-0.006373959 0.059646018 0.15572535 -0.09693822 0.14020732 -0.0038022387 -0.04332345 0.049426105
-0.012526114 -0.097566836 0.09521123 -0.015184032 -0.007677259 0.07342078 -0.082647786 0.032247663
-0.074932404 0.02877664 0.114738464 0.13203098 0.014786768 0.08829881 -0.036953107 0.040373415
0.09906438 -0.15619127 0.034861967 0.07362541 -0.17298101 0.111154 -0.075608015 0.0508366
0.08620977 -0.09841438 -0.1301901 0.0444275 0.058861047 -0.031418692 -0.074261256 0.061805323
-0.05719821 -0.08904144 0.101995334 0.061429 0.06563489 -0.04994061 0.102501564 0.12543283
-0.026263513 -0.07145108 0.09313628 0.081263095 0.09802968 -0.06373743 0.15113276 -0.1522482
0.036217354 -0.08371603 0.015252698 -0.16193204 -0.093375236 0.101768725 0.06629181 -0.07388873
-0.0033598018 0.11295179 0.077169 0.07338849 0.10124709 0.08744907 0.08039775 0.08259265
0.084503576 -0.1313872 0.063651405 -0.05479262 -0.14330149 0.08097452 -0.13396564 -0.01483131
-0.06857599 -0.0023161753 0.10541059 0.10030596 0.10967992 0.023726728 0.013581124 0.13235001
0.18613547 -0.120203204 0.07555853 0.2518427 -0.03790781 0.018789668 -0.100041285 0.037967023
-0.047138233 -0.017185666 -0.057720244 0.03409112 0.18905213 -0.078589365 -0.006808437 0.18090864
-0.03797105 -0.07415069 0.0667022 0.13571641 0.100561224 -0.009616008 0.15251568 -0.18541367
-0.013808204 0.025085434 0.040368814 0.07642067 0.067665175 0.15434441 0.030164195 -0.14251053
0.16219637 -0.09740456 0.053736985 -0.12729841 0.089820474 0.23217908 0.18584324 -0.012848858
-0.01133252 0.2471129 0.24452741 0.03569895 0.25021425 0.19393037 -0.17451046 0.1186251
-0.013432745 0.03652665 0.062953405 -0.13089132 -0.002591589 0.21167687 -0.07130629 -0.056879275

lstm.weight_hh_l0 f4 [256, 64]
00000000: 11a0 043e fa7f 433c 1fad e73c e20d 94bd
00000010: d478 d63d 9532 ba3c 1c45 b93a 4929 cbba
00000020: 8dff fb3c 07ed 783c 7f63 903c 7d2d 973c
00000030: 9450 9e3d d6d8 223d 95c7 003e ae80 afbb
00000040: 2720 d7bd f4bb 4f3d 05d9 e13d 5df3 48bd
00000050: dab3 ac3c 1efa 20bc 2ff1 943d 836f 2dbe
00000060: 56d7 643d 5e0e ad3d 0699 bebd 0025 b7bc
00000070: b29a 7abd 07a5 17be 02c1 dcbd 2f03 9fbb
00000080: f6f1 0bbe bd6d 92bd b848 d7bd b535 513d
00000090: f695 5f3a 7360 8dbd bb32 05be 7dfb 793d
000000a0: c883 c03c 3795 a93c b054 6bbc f8e9 c73d
000000b0: 7b0b c9bc e61a 8d3c e197 313e 31d7 a93d
000000c0: 054d 1a3e 8315 abbc 1cbe 0d3e 01f3 c0bd
000000d0: 2956 fa3d bcc6 f53d 2ede f3bc da41 cd3d
000000e0: 131c 1e3d 0f52 2b3d 84fc 113d 5e8d f53d
000000f0: 5715 cd3d 2991 023e 9d24 4a3e d2b0 0bbe
00000100: f61f 00bd 470a 11be 81eb aabd 5058 ad3d
00000110: e15b ccbd 9f92 a0bd a863 9c3c a8a6 203c
00000120: dd0f 3bbd 5368 b83d c795 24bd 4e65 3fbd
00000130: 59d7 eb3d fef9 01be 269f 76bd f32d ce3d
00000140: 25b4 16be ed64 dbbc 94e1 213e 91e5 36bd
00000150: cd47 e1bd 3a8b f2bc 21e3 0a3e 198a 953c
00000160: 9a3a 10bd ac60 303e 59ea 98bd 13bc b33c
00000170: e674 c9bc 2ca2 143e 1d55 013e c961 86bd
00000180: c3a3 9e3d 5187 e5bc 2287 d63c b318 933d
00000190: 0fbf bfbd 5c77 8b3d 6233 853d 6b82 0c3e
000001a0: 74da 7bbd cd76 8e3c 14f1 2ebd bcc7 f73d
000001b0: 69ac 3dbd 3e42 d1bd c10a 513d c106 8d3d
000001c0: e5f4 6ebd 353b d73d ab22 c73d bd0d 34be
000001d0: 6d5a fc3c b91f 98bd 704e e3bd 4adc d03d
000001e0: 5de4 2abe e893 dd3d 4623 80bd 3e61 0f3e
000001f0: 1666 c83d 716a 90bd 2991 3dbd dfb3 02bd
00000200: 0e01 cf3d ccd5 973c 15ec eabd a7fe aebd
00000210: b52b 223e 374a dbbc d24e 6c3d 84ea 763d
00000220: eb84 aa3d 382e aabd d24d 88bd aab6 8f3c
00000230: 95cf dfba 7469 3abd 4a04 843d 83f7 37bd
00000240: 40e6 f13d 329f 03be 94e3 6f3d 155d 543d
00000250: aeb5 abbd 3883 083e c5ee 1b3d 255f 74bd
00000260: 0cb0 c93b 85d6 ca3c ee8e b5bd 3cc2 f93d
00000270: 9277 cd3d 217b 7cbd fc04 153e a82f 6bbd
00000280: 2940 f0bd 03bb 943c 1497 76bc f773 73bd
00000290: 3c16 b3bd e563 823d 0b0b f83c a417 d63c
000002a0: 4913 443c 30ac 01be 3181 c73d e982 66bd
000002b0: f590 f7bd 365c 90bd c55e d8bd 4049 95bc
000002c0: b9db 653d 352b ef3d ad9b dc3d a8e9 9abc
000002d0: 1d8b 063e 1339 073e 122b eb3d 3a40 c83d
000002e0: d9ee 083e 9bc8 e4bd 6b43 fb3c 9d7d 0cbe
000002f0: 833d b43c d25a df3d 2937 b8bc f5db c33d
00000300: 2477 0b3d b395 b4bd 64da c63c 6428 c53d
00000310: d3b8 0b3d 5dbe bd3d 9372 893c bdb0 ba3d
00000320: 92d1 c7bc 59f4 68bd 45ff 803d 5c58 7a3d
00000330: a739 3f3d e69f bf3d a0ec eebc 87b5 c73d
00000340: 6e7b 113e 388f 25be f1c4 39be ae02 193e
00000350: 2256 853d da1b 0c3d 2d3e b8bc e7c9 9f3d
00000360: 6f6d fabd 82e4 0abd bfff 90bc 8afd 1b3e
00000370: 8a9f 023e 4cfc febd ff70 1e3e f393 dc3d
00000380: aa0d 71be 2937 a2bd 6788 c03b c8c6 e33d
00000390: a1c7 233e 8608 be3c 815a d13d a819 22be
000003a0: 9d17 963c 63d7 45be 0aee 2fbe 8b22 21be
000003b0: 15a4 2bbe 58b5 483e 74e5 033e 63d4 4e3c
000003c0: 8fdf 5e3d f750 b43d b4af 8a3d dcf7 febb
000003d0: 6e95 babb 197d ad3c 2264 dabd 6a3b 223e
000003e0: d51a 443d 0cc3 a9bd 00bb 8ebc a2e0 a5bd
000003f0: e735 41be 5e2c fe3d 7717 fabd 9a5f 213e
0.12951685 0.011932367 0.028280793 -0.072292104 0.10472265 0.022729198 0.0014134976 -0.0015499975
0.030761505 0.0151932305 0.017625568 0.018454308 0.07730213 0.039757572 0.12576135 -0.005355916
-0.105041794 0.050716355 0.11027721 -0.049060214 0.021081854 -0.009825258 0.072725646 -0.1693707
0.055869423 0.08450006 -0.09306531 -0.02235651 -0.061182685 -0.14809047 -0.10779001 -0.0048526744
-0.1366652 -0.07149837 -0.10511917 0.05107661 0.0008529121 -0.06903162 -0.13007633 0.061030854
0.023500338 0.020701034 -0.014363453 0.09761423 -0.024541607 0.01722474 0.17343093 0.08292998
0.15068443 -0.020884281 0.13842052 -0.09421349 0.12223465 0.12000796 -0.02976903 0.10022326
0.038600992 0.041826304 0.03564121 0.11989854 0.10013836 0.12750687 0.1974053 -0.1364167
-0.03128048 -0.14164077 -0.083457 0.0846411 -0.09978462 -0.07840466 0.019090489 0.009805359
-0.045669425 0.09004273 -0.0401819 -0.04672747 0.11515684 -0.1269302 -0.06021037 0.10067358
-0.14717157 -0.026781524 0.15808707 -0.044652525 -0.11000023 -0.029607404 0.13563205 0.018254327
-0.035212137 0.17224377 -0.07466573 0.021940267 -0.024591874 0.14514989 0.12630124 -0.0656162
0.07746079 -0.028018625 0.026187483 0.071824454 -0.093626134 0.06809875 0.06503941 0.13721626
-0.06148763 0.017390633 -0.04271038 0.12098643 -0.046307 -0.10217713 0.051035646 0.06886054
-0.05833902 0.1050934 0.09723409 -0.17583366 0.030804837 -0.074279256 -0.11098945 0.10198267
-0.16688676 0.108192265 -0.06256728 0.14001939 0.09785096 -0.07051552 -0.046281014 -0.03190982
0.10107623 0.018534563 -0.1147081 -0.08544665 0.15836985 -0.026768787 0.057692356 0.060282245
0.08326133 -0.08309597 -0.06655468 0.017543156 -0.0017075414 -0.045510724 0.064461306 -0.04491378
0.11811495 -0.12853697 0.058566645 0.051846582 -0.08384262 0.13331306 0.038069505 -0.05966105
0.0061550196 0.024760494 -0.08865152 0.121952504 0.10032572 -0.061640862 0.14552683 -0.057418495
-0.117309876 0.01815558 -0.015050668 -0.059436765 -0.08744475 0.063667096 0.030278703 0.02613432
0.011967489 -0.1266334 0.09741438 -0.05627719 -0.12088195 -0.07048838 -0.10564951 -0.018223405
0.056117747 0.11678163 0.1077188 -0.018910244 0.13139005 0.13205366 0.114828244 0.09777875
0.13372363 -0.11171075 0.030671796 -0.13719793 0.022001987 0.109059945 -0.02248724 0.09563438
0.03404917 -0.08817615 0.024274059 0.096268445 0.03411181 0.092648245 0.016778266 0.091157414
-0.024391923 -0.056873653 0.06298689 0.061119422 0.04668584 0.0935667 -0.029165566 0.097514205
0.14207241 -0.16167915 -0.18141533 0.14942428 0.06510569 0.03420625 -0.022490585 0.07802182
-0.12227904 -0.03390933 -0.017700074 0.15233436 0.12756172 -0.124504656 0.15472792 0.107704066
-0.23540369 -0.07920677 0.0058756354 0.11121899 0.15994121 0.023197424 0.102223404 -0.158301
0.018321807 -0.19320445 -0.17180648 -0.15735833 -0.16761811 0.19600427 0.12880498 0.012623879
0.05441242 0.08804505 0.06771794 -0.007781012 -0.005694083 0.021177815 -0.1066363 0.15842977
0.04787715 -0.08289155 -0.017423153 -0.08099486 -0.18868218 0.12410806 -0.12211507 0.15759125

lstm.bias_ih_l0 f4 [256]
00000000: 362a 073e a7f6 0e3e 781b 1c3e 33fe c23c
00000010: 621b 74ba 9d2e ab3d ec45 213e 96ae 34bd
00000020: 47b9 953d b3b1 4a3e 73ed ae3d bca6 fc3c
00000030: 1138 683e ffce edbc 8711 2b3e bb6e ce3d
00000040: 3712 eb3d aa36 ac3d 1410 983d 13d1 013e
00000050: 0f9c 9c3d cb66 333e 6e09 113e a7f9 47bc
00000060: ba24 203e cdc1 003e f314 753d 9065 ac3d
00000070: 49e6 edbd 15c1 b2bd 0c5e b4bc ec32 cb3c
00000080: 65c6 fcbd 5939 323e acce 283c 73b0 2c3c
00000090: d4be 94bd 3ecb e1bd 7b11 1c3e bf95 7f3d
000000a0: 9b56 a13c a7e7 1dbd c42f 32bd e206 233e
000000b0: d355 35bd b876 5d3d 0f8f 9ebd 9ec8 423c
000000c0: d6d3 193e 34dd 623d 9e63 d23c f7e8 fd3c
000000d0: 60a8 4d3e 47fb 78bd e36d bfbc b789 a53c
000000e0: 3a9f c63d 00a7 5a3e ff09 353c 576a 2d3c
000000f0: 94d0 eabc fb46 c43d 6904 ab3d 16ab da3d
00000100: b6f1 693d b60d 173e 4763 9b3d d83e 503d
00000110: adff 053e b5d2 543d 9204 143e 41eb 883c
00000120: 1e81 683d 9477 cd3c bb5a 8f3d f20a 263c
00000130: eb37 263e 3210 f63d a19d ca3d 76c6 ecbd
00000140: a107 d5bd f0d2 eebc d9af 013e 7d8d 583d
00000150: ebaf dcbc 9656 9b3d a95c 193d 7ce8 b83d
00000160: c76f 323e dfc3 053e 7a63 803c 2917 cb3d
00000170: a7dd 8d3d 1044 cdbb 535d 503d e3b5 883d
00000180: bedf e6bd 6871 5bbd 1215 003d 53d4 88bc
00000190: 5cc4 cdbd 741c 8e3d c74b 073e 911c df3b
000001a0: 0757 383e 49bf eebc 2c65 51bd f9c7 cc3d
000001b0: 20b5 9b3d 63d1 0bbe 5864 90bc 9061 403e
000001c0: a343 5fbd ed78 b1bd 2a4c fb3d 7f79 2abc
000001d0: d3c2 5a3d 4534 1d3e 1452 65bc 753d 7d3d
000001e0: a094 ebbc c3d4 6e3d 955d 39bd ddec e63c
000001f0: 11bb d23d 44d4 203d 501d 723e 6c3b 31bd
00000200: 64f5 e13c 4c20 ca3d 03de adbd 1f14 1a3d
00000210: cda3 c03d df4c 823d 099f e63c cebf d03d
00000220: dbd0 d13c f774 20bd 4755 783d 4a26 9b3d
00000230: f2d8 80bd eb9f 393d 0f09 babd a8ef f9bd
00000240: 0b62 2d3c 6a8c 28be 3765 0bbd 2ce8 3a3e
00000250: 3861 a73d 7ab4 efbd cb74 4abd c65e b6bd
00000260: c1d4 d5bd c570 03be d03e 74bc 01c8 abbd
00000270: 2816 863d 22cf 7e3d 658f b93d c67e 7abd
00000280: 491c 8ebd 132b 11be 7ab2 89bd 82e8 bd3d
00000290: d75f 2a3d 98e5 8e3d 5cbc 073d 0b82 88bd
000002a0: 7549 3c3e 0867 84bc 1935 f33c 579c 8b3c
000002b0: e5b9 153e b23a 65bb 99d3 f5bd c3fa 1abe
000002c0: 8ff1 9d3d 0d99 313d 5afb c83d 05cc 25be
000002d0: 65b5 f5bd 5808 283d 6071 bf3c 0087 53bd
000002e0: 17d8 853d db30 23be e537 2ebd 1399 e7bd
000002f0: 904f 603c 9b94 70bd 771d e73c 146c 2a3c
00000300: 0a5d 8b3e 1fd0 373e 30d4 583e 5968 403e
00000310: b8e9 383e 15d4 3f3e 40c4 fb3d e030 023d
00000320: 79f2 cf3c 11f1 903e edfe 1a3e b73c 323e
00000330: 77d2 433e 46d8 073e 9b40 4a3e 646b d53b
00000340: f759 2d3e 6528 c43d 2dba 7f3e 9f18 eb3d
00000350: 79a6 193d 5a31 963d 7bc9 883e 04f9 4fbd
00000360: 7ea7 6e3d 417e 1f3e dbd1 073e 29a1 813d
00000370: e2c3 8dbd a138 053e a2a9 5e3d 7d9c 0fbd
00000380: d33e d33c 862c 053e e9c9 c23d 5c5e 44bd
00000390: 21a2 633e b711 f3bd 742c 423e 0ac2 913e
000003a0: 4191 103d 9cb8 403e 5030 373e 81b7 c63d
000003b0: 7a49 0bbd 9077 893d 2302 1f3e f8cd ca3d
000003c0: a600 b93d bc70 633d 2329 96bd 8d03 d73d
000003d0: c50c f13d 9bf5 49bd b664 84bd 96cb 61bd
000003e0: 4cc4 4cbb 318b 873e 5ae2 febc bbc7 6b3e
000003f0: ec61 cb3d 81f5 94bd 779e 493d 3a7b 223c
0.13199696 0.13961278 0.15244853 0.023802852 -0.00093119417 0.083585 0.1574933 -0.04411181
0.073107295 0.1979435 0.085413836 0.030841224 0.22677638 -0.029029367 0.16705905 0.10079714
0.114780836 0.08408864 0.07424942 0.12677412 0.07646953 0.17519681 0.14163753 -0.012205518
0.1563901 0.12573929 0.05983443 0.08417809 -0.11616189 -0.08728234 -0.022017501 0.024804555
-0.12342528 0.17404689 0.010303181 0.010540116 -0.0726296 -0.110250935 0.15241043 0.06239867
0.019694617 -0.038551 -0.043502584 0.15920594 -0.0442713 0.054068297 -0.0774213 0.011888651
0.15022215 0.055386737 0.025682267 0.030994875 0.20083761 -0.06078651 -0.023367828 0.02020727
0.09698339 0.21352768 0.011049747 0.010584435 -0.02866391 0.09583851 0.083504505 0.10677163
0.05711528 0.14751324 0.07587295 0.050841182 0.13085814 0.05195876 0.14454868 0.01671374
0.05676376 0.025081433 0.06999727 0.0101344455 0.16232269 0.12014808 0.098933466 -0.11561291
-0.10401846 -0.029153317 0.12664737 0.05286931 -0.026939353 0.07584874 0.037441883 0.09028718
0.17425452 0.13063 0.015672434 0.09916527 0.069270425 -0.006264217 0.05087025 0.06675317
-0.11273144 -0.05357495 0.031270094 -0.016702807 -0.10047218 0.06939021 0.132125 0.0068088253
0.18001948 -0.029143946 -0.051121876 0.09999079 0.07602906 -0.13654093 -0.017625973 0.18787217
-0.054507863 -0.08665643 0.122703865 -0.0104049435 0.053408455 0.1535197 -0.01399662 0.061826188
-0.028757393 0.058308374 -0.045255262 0.028189117 0.10289586 0.039264932 0.23643994 -0.04326956
0.027582832 0.098694414 -0.08489611 0.037616845 0.094062425 0.06362318 0.028152006 0.10192834
0.025612285 -0.039174046 0.0606282 0.075756624 -0.06291379 0.045318525 -0.09083759 -0.12203914
0.010582457 -0.16459814 -0.034032073 0.18252629 0.0817284 -0.11704345 -0.04942779 -0.08904795
-0.1044097 -0.12835987 -0.014907554 -0.08387757 0.06547195 0.062209256 0.090605535 -0.061156057
-0.06938989 -0.14176588 -0.06723495 0.09272863 0.041595306 0.06977385 0.033138618 -0.06665429
0.18387397 -0.01616241 0.029688405 0.017042322 0.14621694 -0.0034977612 -0.1200325 -0.1513472
0.07712089 0.04335885 0.098135665 -0.16191109 -0.11997489 0.041023582 0.023369491 -0.051642418
0.065353565 -0.15936606 -0.042533774 -0.113084935 0.013690844 -0.05873547 0.028212292 0.010401744
0.2721942 0.17950486 0.21174693 0.18789805 0.18057907 0.18733247 0.12293291 0.031784892
0.025384175 0.2830892 0.15136309 0.17405973 0.19123255 0.13266096 0.19751208 0.006513046
0.1692885 0.09578017 0.24973364 0.114793055 0.037512276 0.07333632 0.26716217 -0.05077459
0.0582652 0.15575506 0.13263647 0.06329567 -0.06922127 0.13009883 0.054360993 -0.03506135
0.025786793 0.13005266 0.095111676 -0.04794155 0.22229816 -0.11868613 0.1896227 0.28468353
0.035294775 0.18820423 0.17889524 0.09702969 -0.03400562 0.06712258 0.15528159 0.09902567
0.09033327 0.055527434 -0.07332065 0.10498724 0.11770014 -0.049306493 -0.064645216 -0.055125795
-0.0031244932 0.26473382 -0.031113792 0.2302541 0.099307865 -0.07273389 0.04922339 0.009917075

lstm.bias_hh_l0 f4 [256]
00000000: 92bd 523e d911 5fbd 52eb b53d e2d4 1d3e
00000010: 57d0 debc 6c7f 1a3d 119e 89bb 6825 353d
00000020: 74a1 0abd b0f5 6a3e 76f5 d3bc 847d d5bd
00000030: e098 893d 473b d03d 3347 9e3d 7b66 373d
00000040: a8a9 72bd c6a8 f43d fb0a 493e baff 523e
00000050: 9bcc af3d acdb 673d 2be6 e13d 00e6 f53d
00000060: 5b0f c83d 02ff 483e 1adc c83d 3c59 983d
00000070: 5fb5 a73d e4f1 bfbc 2aca 0f3e 612e 803c
00000080: 9cc1 30bc 2ca0 ff3d 875c cfbc 3bb3 f7bd
00000090: 8592 b03c 4216 e0bc 21e6 1ebb 6c91 a53d
000000a0: b3ff 853d afda 62bd e15a 0fbc c285 1f3e
000000b0: 77e5 fbbd 4756 0f3e b735 cebd afaa c63d
000000c0: b09b a73d c3b8 7ebd 4d30 193e 70ec 083e
000000d0: c57a 773c 9c2e 9cbd d530 d83c 2fa3 583d
000000e0: 0d22 0a3e a4ac 073e 13e0 b13d 4793 e43d
000000f0: f6f4 103e e0eb 49bd 8996 7f3c a5b5 06bc
00000100: beb4 b63d 7d84 c63d e666 1d3d d8e3 bdbd
00000110: cb2f 50bd faa4 d73d 1846 f73d e7d6 c73c
00000120: 9c90 623c 2835 493e 40a2 793d 21d5 93bd
00000130: 81fb f03d c53e 0e3d 43e5 8d3d e4c1 e73d
00000140: 115d cd3d 969b 623c 977b cf3d 86e7 e33c
00000150: 00f4 93bd 424b bbbc 24fa 503e f25c 8a3d
00000160: 0405 773e 35d3 7f3e 69dc 783c 18af 403d
00000170: ff74 b13b a7aa 283e 0553 a23d cf3e e03d
00000180: 4b86 d1bc e8c3 6e3d 32d9 233d 1e59 063d
00000190: c855 f73d 8a27 22bd b1af 863d f0c2 753e
000001a0: cfdc 893d 1012 7bbb 84fc 723b 712b 8f3d
000001b0: 4f04 693c 5911 f8bd 1e7e a63d 2c1d 6c3e
000001c0: 0d76 983c 05c7 babd fc2d 71bd 2e48 38bd
000001d0: 70f6 e5bd 1997 3c3a 3e84 f53c 7120 4abd
000001e0: 483f e33d bd68 313d 61df 51bd 8a45 123e
000001f0: 89bc 1c3e cc4a df3d 076c b03d 498a 86bd
00000200: d5ad 5a3d c7e7 ba3c 923f 633c 76e0 eb3d
00000210: 4c82 243d f9ec 733d 741b 30bd 0212 cbbd
00000220: 058c 213e f3d8 563d 174f 003c a560 3cbd
00000230: c9c2 183d 53e7 00ba ccc2 22bd 1232 c23d
00000240: 913f 9cbd 7100 3bbd 3aed 00be ee4d 163e
00000250: 4a8f b5bc 62a2 3bbd 09a4 8ebd a92e 15be
00000260: 0aaf 973c ce31 a83d ebd6 9ebd ceae 9cbc
00000270: 90a5 65bd a5d8 0a3d cb85 833d dbb9 a4bc
00000280: 1aa6 713d 9830 23be ba7f 1bbe ad53 803d
00000290: 438e 843d 1c3a 16bc bf1b eabc 8ebd dabd
000002a0: bd45 633e 040b 023e 4d48 a5bd 13e0 0cbe
000002b0: 45fa 9e3d 8591 d0bd ed84 25bd fedd 04be
000002c0: 72cf d33d 05f6 10bd 14b5 953d 9cf6 0dbe
000002d0: d5df f1bb 1626 8839 7724 f9bd ca0a 3e3d
000002e0: 79d2 f63c 4842 9c3c 83c5 853c 5f95 da3d
000002f0: 1eb4 4cbc fbbb c13d db25 b2bd 58d2 82bd
00000300: 5ea1 753e 4348 623d 64b8 643e ab30 603e
00000310: 305c d03d 8ed1 0c3e 9013 d73d a2ef 37bd
00000320: c9cf 173e ef28 8a3e 2436 9038 d040 31bd
00000330: d80d 783d 3061 4a3e 335a 223e f96a 373d
00000340: 8562 253e 41d4 303e 3a1b 693e 7be6 9b3d
00000350: 519e 563d 5072 4b3e 4762 663e 92d2 77bd
00000360: f8c9 613e 470c 783e 3ea1 2abb adf8 c6bb
00000370: 2cc6 a23d 887d 043e 9bce 9c3d ee64 22bd
00000380: e955 0b3e db9a de3d d7ea 973d 1a1a fa3d
00000390: 3f27 f53b 3ae2 01bd 89c6 d23d 9a2b 903e
000003a0: b054 123e 44f3 303e 5ed1 183e 8727 c03d
000003b0: 3e48 853c ac33 5e3c 71e3 3f3e 5a03 4e3d
000003c0: 38be d63d 1b4b ee3d eb61 b9bc bd58 fc3d
000003d0: 7901 e93d 0aa2 b63b 0eeb b73c ba79 c83c
000003e0: e38b 77bd 7734 f63d 8ce4 3f3e baf8 2b3e
000003f0: 2500 5f3e b70d 6a3d e955 2a3e bd14 573d
0.20580128 -0.05446038 0.088827744 0.1541324 -0.027198954 0.037719175 -0.004199751 0.044225127
-0.03384538 0.22945285 -0.02587388 -0.10424331 0.06718612 0.10167556 0.07728424 0.044775467
-0.059243828 0.119462535 0.19633095 0.20605364 0.08583947 0.05660598 0.11030229 0.1200676
0.09768554 0.19628528 0.09807606 0.07438895 0.08188891 -0.023430772 0.14041963 0.015647115
-0.010788348 0.12481722 -0.025312675 -0.120947324 0.021554241 -0.027354363 -0.0024246054 0.08084378
0.065429114 -0.055384334 -0.008749695 0.15578368 -0.12299626 0.13997756 -0.10068839 0.09700524
0.08183992 -0.06218792 0.14959832 0.13371444 0.015104954 -0.076260775 0.026390472 0.05289
0.13489552 0.13249451 0.08685317 0.111609034 0.14155945 -0.049297214 0.015599855 -0.008222018
0.089211926 0.09693239 0.03842821 -0.09271973 -0.05082683 0.10529514 0.12073916 0.024394466
0.013828423 0.19649184 0.06094575 -0.072183855 0.117667206 0.03472783 0.06928494 0.113162786
0.10027517 0.01383104 0.10130995 0.02782036 -0.07224274 -0.022863034 0.20407921 0.06756009
0.24123007 0.24982913 0.015189269 0.047041982 0.0054155583 0.16471349 0.07925991 0.1094948
-0.025576731 0.0582923 0.040002055 0.032799833 0.12076908 -0.03958849 0.06576479 0.24000144
0.06731569 -0.0038310327 0.003707678 0.06990708 0.014222219 -0.12112684 0.08129524 0.23058003
0.018610978 -0.09119991 -0.058881745 -0.04499071 -0.11228645 0.0007194146 0.029970285 -0.049347345
0.11096054 0.043312777 -0.05123842 0.1428434 0.15306295 0.10902938 0.086143546 -0.065693446
0.053388435 0.022815598 0.013870137 0.11517422 0.040163323 0.059552167 -0.04299493 -0.09915544
0.1577607 0.052452993 0.0078313565 -0.045990605 0.037295137 -0.00049172825 -0.039736554 0.094822064
-0.07629312 -0.045654718 -0.12590495 0.14678165 -0.022163052 -0.045809157 -0.06964881 -0.1456858
0.018516082 0.082126245 -0.07755836 -0.019126322 -0.056066096 0.033898015 0.06422003 -0.020108154
0.058996297 -0.15936506 -0.15185443 0.0626596 0.06472447 -0.009169128 -0.028577683 -0.10680686
0.22194572 0.12699515 -0.08070431 -0.13757353 0.07762579 -0.10184006 -0.04040997 -0.12975308
0.103423014 -0.035390873 0.073099285 -0.13863605 -0.007381419 0.00025968318 -0.12165158 0.046397008
0.030129658 0.019074574 0.016329532 0.106730215 -0.012494115 0.094596826 -0.086986266 -0.06387776
0.23987338 0.055244695 0.22335964 0.21893565 0.10173833 0.13751814 0.10501778 -0.044906266
0.14825357 0.26984355 6.8765396e-05 -0.0432747 0.060560077 0.19763637 0.15854721 0.04477975
0.16150863 0.17268468 0.22764292 0.0761232 0.052397076 0.19867826 0.22498427 -0.06050355
0.22049701 0.24223433 -0.002603605 -0.006072125 0.079479545 0.12938511 0.07656594 -0.039647035
0.13606991 0.1086938 0.07417839 0.1221201 0.007481485 -0.031709887 0.10291774 0.28158265
0.14290118 0.17280298 0.14923617 0.09382539 0.0162698 0.013562124 0.18739106 0.050296165
0.104855 0.11635419 -0.022629699 0.12321613 0.11377234 0.005573516 0.02245095 0.024472106
-0.06043614 0.120217256 0.18739527 0.167941 0.21777399 0.057141986 0.16634335 0.052510012

fc1.weight f4 [8, 64]
00000000: 1035 6b3e 53ea 01be d745 973d bff0 e03c
00000010: 8949 593d cfaf e6bd a3c4 b43d 2a51 ed3c
00000020: 9caa 763d 5a91 c93d b52e 69bd 34e5 85bc
00000030: 6fbb ff3d 5f62 b23d f739 bf3d 63f4 91bd
00000040: 1bfa e3bd 6204 1e3d 5e34 383e 2d00 d83d
00000050: a3ac c63d 7670 413e 5013 7b3e ac94 0dbe
00000060: 97f1 6b3e 1153 7a3e 0ef7 a5bc 3bf4 7c3d
00000070: a7b7 17be 1295 923d 64f4 12bd fcf6 23bd
00000080: 32a5 753a 7d90 e13d 7360 84bd 217e 33bd
00000090: c3fb 393d f314 32bd 6d9f 923d 7de4 433e
000000a0: 8da8 083e 83a1 033e b45f 873d 9ab1 833e
000000b0: edba 1b3e 97c3 fdbc ff1d 823d 7b04 0e3e
000000c0: 37b6 133e 625d 1cbe 9aa8 55bd fd22 43bd
000000d0: 6432 b2bd 6aea 16be 3556 a13d 3827 8dbd
000000e0: be2a e9bd f8c3 2d3e a568 633d d537 1b3e
000000f0: b849 d43d 92f5 11be 77d6 683d 228c 663e
00000100: 0250 a8bd 40fe f7bb 7096 c6bd 403e 2d3d
00000110: e4b4 11bd 32f5 f3bd b0e8 efbd 0003 b8bd
00000120: d6c3 87bd ea68 f7bd 3c6f 663d 1425 ebbd
00000130: e664 a23d 4c70 d33d 08d8 d03c ccf6 633d
00000140: 00a0 26bd e87f 9cbd 12fb e0bd 183e cebd
00000150: 1012 2d3c f4f0 08bd e86d 233d b64b b8bd
00000160: 5025 62bc 1003 d73c a4a4 cdbd e8c9 c53c
00000170: dc61 de3d 40e2 f53d 4464 4cbd fe38 ba3d
00000180: 4279 a03d 605e bebc 8ccc 94bd ac13 98bd
00000190: ac3c 723d 74ca c0bd c471 0e3d 1c0e dcbd
000001a0: 1640 8ebd f0ba 7e3d 4019 dd3b 6407 0a3d
000001b0: 985d f73c 568d bcbd ca01 81bd 4c0d 62bd
000001c0: 3447 083d 5cc0 863d 64be b93d 9c71 a03d
000001d0: 509a 5bbc ac28 46bd 82f2 a4bd fa1c b03d
000001e0: 4ac9 ffbd e0e1 c33c 6691 fc3d 3c3b fe3d
000001f0: 0207 d83d e22b d7bd 8add d3bd d03c 893c
00000200: d7f8 f8bd 9be3 85bd a019 173f d55b 163f
00000210: d24a 093f eaa3 123f 6473 e3bd 2257 193f
00000220: 81cb 1d3f d89a 05be ecc9 1a3f 9365 f43e
00000230: 3f3c 01be b22d 193f 416e 6c3d 7241 073f
00000240: b23b dfbc 56bf dc3c a66f b63c 9ce8 073f
00000250: 9571 063f c344 aabd d9ae ae3d 4877 33bd
00000260: 5a9d e8bd c73a 233c 735b 003f eb55 153f
00000270: ed51 0d3f de81 4c3d 202b f53e 5c35 3abc
00000280: fcac ce3d 7924 6f3d aef0 1e3f 2164 1b3f
00000290: 1e2e 0a3f a6bb 23ba 4da3 1e3f d0e4 45bd
000002a0: eec3 073f 2f6d db3d 93db 423e deb9 a3bd
000002b0: f106 aa3d 5ffc f13e e31a 023f 87dc 283c
000002c0: f4a6 87bc 3a3d 043f c6a1 f13e 10e9 a8bd
000002d0: ecd1 053f acb4 173f e9ac 68bd 5d50 f63e
000002e0: 2a54 f5bc 64f2 a8bd 884a 1b3f dd67 933d
000002f0: ce7a dd3a f025 153f 315e b6bd 6823 b7bd
00000300: 236e bc3d f0d5 12be 2459 0f3b f4af c9bd
00000310: 7f5e e3bd 1151 953d c0d1 343e 700d c9bd
00000320: e0d7 3b3d 6780 763e 4964 09bd 9804 1e3d
00000330: 07ff b53d fb56 403c 0a9a 6d3e 991a ecbd
00000340: 900a 8dbd 17dc 8f3e 4af3 5d3e 5c15 13be
00000350: e764 ad3a 783c 2f3e 90f1 983e b252 32bd
00000360: b184 0b3e da4e 7b3e 2100 f2bd 4751 ffbd
00000370: 810c bd3c f896 983e 07e2 5d3d c119 15be
00000380: eb8f c43d d51b 743e 08f6 9d3d 0f44 fdbd
00000390: 0eed 09be 3d25 8d3b c2a8 1abe 5701 093e
000003a0: e7c6 85bd a664 743e bb67 e93d b47d 343e
000003b0: 873c 523e e6af 2c3d b8d3 9c3d 78fa ab3d
000003c0: 89be 4a3d a3bb a63d 4caa 933d 162d 843c
000003d0: fe0f bcbc 4bef 193d d775 033d 06db f13c
000003e0: 9c87 873d 63be 3e3e a3e4 943d 6bde 143e
000003f0: 6457 283e d8c7 fa3c 52be 393e bb5e 273e
0.2296946 -0.12687044 0.07386368 0.027458547 0.053048644 -0.112640016 0.08826568 0.028969366
0.0602213 0.09842177 -0.05692931 -0.016344644 0.12486922 0.08710169 0.09337228 -0.07126691
-0.11131688 0.0385784 0.17988726 0.105469085 0.097008966 0.18890557 0.24519086 -0.13826245
0.23041378 0.2444575 -0.020259406 0.061756354 -0.14816152 0.07157339 -0.0358776 -0.040030465
0.00093706243 0.11013887 -0.06463709 -0.043821458 0.045406114 -0.04347701 0.07159314 0.1913013
0.13345547 0.1285458 0.06610051 0.25721437 0.15208025 -0.030977054 0.063533776 0.13868897
0.14424978 -0.15269998 -0.052162744 -0.04764079 -0.087010175 -0.1473786 0.07877771 -0.06892246
-0.113851056 0.16969287 0.05551972 0.15158017 0.10365623 -0.14253834 0.056845155 0.22514394
-0.08218385 -0.0075681508 -0.096966624 0.042295694 -0.0355729 -0.11912002 -0.117143035 -0.08984947
-0.066291496 -0.12080558 0.056258425 -0.114816815 0.07929401 0.10324153 0.025493637 0.055655286
-0.04067993 -0.07641584 -0.10985388 -0.10070437 0.0105633885 -0.033432916 0.039899737 -0.08998816
-0.013802841 0.026246578 -0.10041168 0.024144128 0.10858509 0.120060444 -0.04990031 0.09092902
0.07835628 -0.02323836 -0.07265577 -0.07425627 0.059139892 -0.09413615 0.034776464 -0.10744879
-0.06945817 0.062189996 0.006747395 0.033698454 0.030195996 -0.09206645 -0.06299169 -0.055188462
0.03327103 0.065796584 0.09069517 0.07834169 -0.01340349 -0.04837863 -0.08054067 0.08599277
-0.12489565 0.023911417 0.1233242 0.12413642 0.10548212 -0.10506417 -0.103449896 0.01675263
-0.121568374 -0.06537553 0.59023476 0.58733875 0.5362979 0.57281363 -0.111059934 0.5989858
0.6163865 -0.1304735 0.6046436 0.47733745 -0.12620638 0.5983535 0.057722334 0.52834237
-0.027250145 0.026946705 0.022270035 0.5308931 0.5251706 -0.083138965 0.08529443 -0.043814927
-0.113581374 0.009962744 0.5013954 0.58334225 0.55203134 0.04992854 0.47884464 -0.011365261
0.10091588 0.058384392 0.62086 0.6069966 0.5397662 -0.00062459183 0.6196793 -0.048313916
0.5303334 0.107141845 0.19029073 -0.07994436 0.08302105 0.47262856 0.50822276 0.010306484
-0.016559102 0.51655924 0.47193736 -0.08247578 0.5227344 0.5926006 -0.056805525 0.48108187
-0.02994736 -0.08249357 0.606606 0.07197545 0.001689756 0.58261013 -0.08904684 -0.089423
0.092006944 -0.14339423 0.00218732 -0.098480135 -0.11102008 0.07290853 0.17658138 -0.09817016
0.04586017 0.24072419 -0.033542905 0.0385786 0.08886533 0.011739488 0.23203292 -0.115285106
-0.0688678 0.28097603 0.21674839 -0.14363617 0.0013228924 0.17112911 0.29871798 -0.043535896
0.13624837 0.24541798 -0.11816431 -0.12466674 0.023077251 0.2980268 0.054170635 -0.14560606
0.09597763 0.23838742 0.07712942 -0.12366497 -0.13469335 0.0043074177 -0.15103438 0.13379417
-0.06532078 0.2386652 0.11396738 0.17626077 0.20530902 0.042159937 0.0765757 0.083973825
0.049498115 0.081412576 0.07210216 0.01613478 -0.022956844 0.037581723 0.032094803 0.029523384
0.06617662 0.18627314 0.072701715 0.1453797 0.16439587 0.030612871 0.18139008 0.1634473

fc1.bias f4 [8]
00000000: 4e33 093e d084 00bd 3ae6 083f 4198 3b3e
00000010: 0430 323e e35d 88bd a5e2 983d ef4b 87bd
0.13398477 -0.03137666 0.534763 0.18319799 0.17401129 -0.066585325 0.07465104 -0.0660628

fc2.weight f4 [1, 8]
00000000: 38d8 a9be 8037 82be 8dbb 5f3f 3577 37be
00000010: 286e a3be 0c6b b1be c774 fabe a1ed 3d3e
-0.33172774 -0.25432968 0.87395555 -0.17916568 -0.3191998 -0.34651983 -0.4891722 0.1854768
