mul_bestmodel/best_model.pth (torch, 212130 bytes, 11 tensors)

lstm.weight_ih_l0 f4 [256, 5]
0	0xbdea7a91	-0.11449159
1	0xbd52c9af	-0.05146187
2	0xbe71adbf	-0.23601435
3	0xbd38e37b	-0.045138817
4	0xbe2b3bdd	-0.16722055
5	0x3e45ef7e	0.1932964
6	0xbe61684b	-0.22012441
7	0x3d72d4a9	0.05928484
8	0x3c94ecee	0.018179383
9	0xbd54ac91	-0.051922385
10	0xbcbbbc02	-0.022916798
11	0x3ed7b97c	0.421337
12	0xbdffeacd	-0.124959566
13	0x3e0f08f0	0.13968253
14	0xbf4a3a3f	-0.78995126
15	0x3f2f21d6	0.68411005
16	0xbd8cb357	-0.06870144
17	0x3eb400f4	0.35156977
18	0xbc494400	-0.012284279
19	0xbe2d4e00	-0.16924286
20	0x3ee9ae3c	0.45640743
21	0xbebd86a7	-0.37016794
22	0x3ea6c74c	0.32573926
23	0x3e66a1b1	0.22522618
24	0x3de8e44b	0.113716684
25	0x3d60782b	0.0548021
26	0xbce22dcc	-0.027609728
27	0x3dfdc3a5	0.12390832
28	0x3ed333c3	0.4125043
29	0xbf19b6cb	-0.60044545
30	0xbeb5358e	-0.3539242
31	0xb850f75c	-4.9821436e-05
32	0x3c70e091	0.014701978
33	0xbe9d83df	-0.30764672
34	0xbec38b5a	-0.38192254
35	0xbea17dfd	-0.31541434
36	0x3e9f912e	0.3116545
37	0x3e34c9ca	0.17655101
38	0xbe2936fa	-0.16524878
39	0xbea4de60	-0.3220091
40	0x3c98607e	0.018600699
41	0xbecb1f10	-0.39672136
42	0x3e2aa638	0.1666497
43	0xbcf745cb	-0.030184647
44	0x3e499b24	0.19688088
45	0x3e84ba09	0.25923184
46	0xbe5e36cc	-0.21700591
47	0xbfbe1713	-1.4850792
48	0xbd9ed977	-0.07756322
49	0xbdc2b349	-0.09506852
50	0x3e3f374d	0.1867344
51	0x3e32ca9f	0.17460106
52	0x3e1bbe33	0.15209274
53	0xbf2bdfca	-0.6713835
54	0x3c5d5bb6	0.013510635
55	0x3e99f44a	0.3006919
56	0x3d21270c	0.03934388
57	0x3f052644	0.52011514
58	0xbe032ba0	-0.1280961
59	0xbe40d076	-0.18829522
60	0xbd22166d	-0.03957217
61	0x3e364b5e	0.17802188
62	0xbcbf05bd	-0.023318166
63	0xbdd8c4a5	-0.10584382
64	0xbb9acfa5	-0.00472446
65	0x3f301983	0.6878893
66	0x3e4975a5	0.19673784
67	0x3cb53933	0.022122001
68	0x3e8e28f8	0.27765632
69	0x3d6bd0a0	0.057572007
70	0x3f3d3e1e	0.7392291
71	0xbdea6bc2	-0.114463344
72	0x3e4eaec6	0.20183858
73	0xbdd86cc8	-0.105676234
74	0xbcff8510	-0.031191379
75	0x3e3cbacb	0.18430631
76	0x3ce8f8e0	0.028438985
77	0x3e9712eb	0.2950662
78	0xbe02bf97	-0.12768398
79	0xbc8f05b0	-0.017458767
80	0x3ee58bae	0.4483313
81	0xbd5e827a	-0.05432365
82	0x3e679e21	0.22618915
83	0x3e1a782e	0.15084907
84	0xbd998fb0	-0.07498109
85	0x3c7cef08	0.015437849
86	0xbd953b7a	-0.07286735
87	0x3c5f1ac3	0.01361722
88	0x3d25c19a	0.040467836
89	0xbe4f514b	-0.20245855
90	0xbe7bf1e3	-0.24603991
91	0x3e6eaa45	0.2330714
92	0x3da85ff1	0.08221424
93	0x3cb057a2	0.021526162
94	0xbe3851dd	-0.17999978
95	0x3de44a3b	0.11146971
96	0xbec5b228	-0.38612485
97	0x3e3ac29f	0.18238305
98	0x3e37694f	0.17911266
99	0xbdb28712	-0.08717169
100	0x3cc9192c	0.024548136
101	0xbe2e37ff	-0.17013548
102	0x3e0d406d	0.13794108
103	0xbc685a24	-0.014181647
104	0x3d8c66c3	0.06855538
105	0x3f0e0572	0.5547706
106	0xbeb1e325	-0.3474361
107	0x3e9b7c05	0.30368057
108	0xbb293bad	-0.0025822923
109	0xbec2ccb5	-0.38046804
110	0x3eeb2e4f	0.45933768
111	0xbc6652b3	-0.014057803
112	0xbd7627ad	-0.06009643
113	0x3e17fd1e	0.1484265
114	0xbe06149c	-0.130938
115	0x3f02211f	0.5083179
116	0xbe7d326e	-0.24726269
117	0xbf4d93ef	-0.80303854
118	0xbf3040ab	-0.68848675
119	0x3dfbeb90	0.12300789
120	0x3f0c0dc6	0.54708517
121	0x3e0473e2	0.12934831
122	0xbe0f89bd	-0.14017387
123	0x3e486914	0.19571334
124	0xbd240008	-0.040039092
125	0xbe4714e9	-0.1944157
126	0xbd608933	-0.054818343
127	0xbf61ca0d	-0.8819893
128	0x3eb3e007	0.35131857
129	0xbe1299d2	-0.1431649
130	0x3f4d44ba	0.80182993
131	0xbd873562	-0.06601979
132	0xbe910d1a	-0.28330308
133	0x3ebd557c	0.36979282
134	0x3df21c2f	0.11821782
135	0xbe09a946	-0.13443479
136	0xbe6066f3	-0.21914272
137	0xbdfb454a	-0.12269075
138	0xbe2fa764	-0.17153698
139	0xbdf96ad1	-0.12178577
140	0xbe733787	-0.23751651
141	0xbe66143d	-0.22468658
142	0xbca63fc7	-0.020294083
143	0xbe06aabd	-0.13151069
144	0xbdb17d48	-0.086664736
145	0x3ea2b37f	0.3177757
146	0x3d50fa93	0.051020216
147	0x3e49ba17	0.19699894
148	0xbd3deb7d	-0.046367157
149	0xbe73bb23	-0.23801856
150	0x3f2100c5	0.628918
151	0xbf0469eb	-0.5172412
152	0x3e57d9a1	0.21079113
153	0xbdc0fb85	-0.094229735
154	0xbe5dce4d	-0.21660729
155	0xbd7b9dcf	-0.061429795
156	0x3e0a5be1	0.13511612
157	0xbce49215	-0.027901689
158	0xbc2fef13	-0.010738152
159	0xbe3006bd	-0.1719007
160	0xbe918c24	-0.2842723
161	0x3e829ecb	0.25511774
162	0xbe19f04b	-0.1503307
163	0xbf164687	-0.58701366
164	0xbe2074aa	-0.15669504
165	0x3d286416	0.041111074
166	0xbe20d33a	-0.15705577
167	0x3e31a15e	0.17346713
168	0xbe2b6ef2	-0.16741541
169	0xbeeb05c0	-0.45902824
170	0xbda7a289	-0.08185298
171	0xbe3f8baf	-0.18705629
172	0x3e807ba6	0.25094336
173	0x3e3db09b	0.18524401
174	0x3d2b4e26	0.041822575
175	0xbe0a7c4e	-0.13523981
176	0xbdf8c727	-0.1214736
177	0xbe856b1d	-0.26058283
178	0x3e2ef0e0	0.17084074
179	0xbecec54a	-0.40384895
180	0xbe8f2e85	-0.2796518
181	0x3da30eb7	0.07961791
182	0x3e140775	0.1445597
183	0x3e4189bf	0.18900202
184	0xbe69ee40	-0.22844791
185	0x3e9a220a	0.30104095
186	0x3e22888a	0.15872398
187	0x3e18dc1a	0.14927712
188	0xbd808b62	-0.06276585
189	0x3d4041a4	0.0469376
190	0x3e7d478c	0.24734324
191	0xbe440c77	-0.1914538
192	0x3e4787b0	0.19485354
193	0xbe134017	-0.14379917
194	0x3dcef620	0.10105538
195	0x3f34c743	0.7061655
196	0x3ef17afd	0.47164145
197	0x3d842542	0.06452419
198	0xbd8e65a2	-0.06952979
199	0xbcaf33b5	-0.02138696
200	0xbe54ed28	-0.20793593
201	0xbdcd36e5	-0.10020236
202	0xbe86fecc	-0.2636627
203	0x3cdd6265	0.027024457
204	0xbeaa7ca6	-0.33298224
205	0x3f02fa29	0.51162964
206	0x3e8a8fd6	0.27062863
207	0x3db6b436	0.08921091
208	0xbd9e1483	-0.07718756
209	0x3ccde8dd	0.025135452
210	0x3e7a0900	0.24417496
211	0xbcc3e2e8	-0.023911908
212	0x3e6ecd16	0.23320422
213	0xbd465cfc	-0.04842852
214	0x3e1042c8	0.14087975
215	0x3e0975be	0.13423821
216	0xbe217eda	-0.15771046
217	0x3cbd5e63	0.023116296
218	0x3d9ad19a	0.075595096
219	0xbe77674f	-0.24160503
220	0x3ec61eec	0.38695467
221	0x3e31306e	0.1730363
222	0x3e2ac07d	0.16674991
223	0xbe7a8562	-0.24464944
224	0xbe7751d9	-0.24152316
225	0x3f16230b	0.5864722
226	0xbe42f39f	-0.19038247
227	0xbdd19fc9	-0.10235555
228	0xbdbc4285	-0.09192375
229	0x3dd0b2e3	0.1019037
230	0x3cc99a02	0.02460957
231	0x3e63386a	0.22189489
232	0x3e10e40c	0.14149493
233	0xbd4f7025	-0.05064406
234	0xbe675168	-0.22589648
235	0x3e9b8e29	0.30381897
236	0xbdcd74d2	-0.10032047
237	0x3eaa2ac6	0.3323576
238	0x3dd5f2fd	0.10446737
239	0xbe07d624	-0.13265282
240	0x3f4c51f2	0.7981254
241	0xbdf446e3	-0.11927583
242	0x3da02a5b	0.07820579
243	0x3ee61f03	0.44945535
244	0x3d68f3d4	0.056873158
245	0x3f00ff16	0.5038923
246	0xbe8ef0ca	-0.27918082
247	0x3b4a35e2	0.003085487
248	0x3e51f478	0.20503414
249	0x3c11ed4a	0.008906672
250	0xbe8c6888	-0.274235
251	0xbe1b615d	-0.1517386
252	0xbe8f38f5	-0.27973142
253	0xbdef62cd	-0.11688767
254	0xbe9b8198	-0.3037231
255	0xbed89be4	-0.42306435

lstm.weight_hh_l0 f4 [256, 64]
0	0xbe6f4b99	-0.23368682
1	0xbd6e8ec8	-0.058241636
2	0xbdd3537a	-0.10318656
3	0xbeabb663	-0.33537588
4	0x3afb0fea	0.0019154523
5	0xbe73df48	-0.23815644
6	0x3d696717	0.05698308
7	0xbe475bc8	-0.19468606
8	0x3e14ea48	0.14542496
9	0x3c4e70d7	0.012600145
10	0xbb17ebd1	-0.002318133
11	0xbe007709	-0.12545408
12	0x3c37b460	0.011212438
13	0xbdb0a33d	-0.08624885
14	0xbd7c4621	-0.061590318
15	0xbd837e11	-0.0642053
16	0x3e926727	0.28594324
17	0xbe2f3d26	-0.1711317
18	0x3e509f97	0.20373379
19	0xbe22b316	-0.15888628
20	0x3e8723e2	0.26394564
21	0x3de24f63	0.11050298
22	0x3de57b27	0.1120513
23	0x3e4cf793	0.20016317
24	0xbdcec9b5	-0.10097066
25	0xbdef2f5c	-0.11678955
26	0x3e8bb5da	0.2728718
27	0xbe169de7	-0.14708672
28	0xbd89ea1d	-0.06734107
29	0x3d38660c	0.045019194
30	0xbe0e0154	-0.13867694
31	0x3e382448	0.1798259
32	0xbe1f5273	-0.15558796
33	0xbd8f82dc	-0.07007381
34	0xbd2defbf	-0.042464968
35	0xbe0929df	-0.13394879
36	0xbdb5f65d	-0.08884881
37	0x3d17c395	0.037051756
38	0x3da65f9d	0.081237055
39	0xbbef97fa	-0.007311818
40	0x3dd8a966	0.10579185
41	0x3edf10b7	0.4356744
42	0xbe4bd497	-0.19905315
43	0xbd9f5b80	-0.07781124
44	0x3daccf83	0.08438017
45	0x3db2780e	0.08714305
46	0x3de3603e	0.11102341
47	0xbe8335b2	-0.25626904
48	0xbdb474e4	-0.088113576
49	0xbe2f8d65	-0.17143781
50	0x3e8c0385	0.27346435
51	0x3ece43c2	0.4028607
52	0x3e66e38a	0.22547737
53	0x3d804e07	0.062648825
54	0xbdf548bd	-0.11976764
55	0x3d8310a7	0.063996606
56	0x3e10edaa	0.14153162
57	0xbdeecd07	-0.116601996
58	0x3e500cd3	0.20317392
59	0xbe67978d	-0.22616406
60	0x3e169b7e	0.14707753
61	0x3d26f1d0	0.040757954
62	0xbe8d36d6	-0.275809
63	0x3d30d6f8	0.04317376
64	0x3d5a7688	0.053335696
65	0xbe0515ea	-0.12996641
66	0xbd07030f	-0.0329619
67	0xbd9554ae	-0.07291542
68	0xbe569498	-0.20955122
69	0xbeab2883	-0.33429345
70	0x3e2e6fc9	0.1703483
71	0xbe86f6a2	-0.2636004
72	0x3e2774fa	0.16353217
73	0x3ed3cfdf	0.4136953
74	0xbe7e37bb	-0.24825947
75	0x3c271fd8	0.010200463
76	0x3d73236b	0.05935995
77	0x3d893909	0.06700332
78	0x3db56d57	0.088587455
79	0x3c48c528	0.012254037
80	0x3db8fb37	0.090322904
81	0xbd226de3	-0.039655577
82	0xbd721cb9	-0.059109423
83	0xbdf2b167	-0.11850243
84	0x3d726b0c	0.05918412
85	0xbdafa77e	-0.085768685
86	0xbd07cda4	-0.0331551
87	0x3e0d2829	0.13784851
88	0xbdb78a63	-0.08961942
89	0x3e170da8	0.14751303
90	0x3dae0427	0.08496886
91	0xbe994e51	-0.29942563
92	0x3e75618e	0.23962995
93	0x3d8bfdbe	0.06835507
94	0x3d0fa20e	0.035066657
95	0x3e4ea2c6	0.2017928
96	0x3ec7b64a	0.39006263
97	0xbe5ef878	-0.21774471
98	0xbe81759e	-0.25285047
99	0xbe901863	-0.28143606
100	0x3c14bbb9	0.00907796
101	0xbce8b23d	-0.028405303
102	0x3a8351a4	0.0010018838
103	0x3e06d970	0.13168883
104	0x3e8ace53	0.27110538
105	0xbc01dde1	-0.007926435
106	0xbe145119	-0.14484061
107	0x3e5a4b67	0.21317826
108	0xbe551772	-0.20809725
109	0xbde3cb20	-0.111227274
110	0x3d58c3df	0.052921172
111	0xbdc8804f	-0.09790098
112	0x3e836734	0.25664675
113	0x3e958f79	0.29211023
114	0x3cf20b7d	0.029546494
115	0xbe1101cf	-0.14160846
116	0x3e4f7f3d	0.20263381
117	0xbe1a2d61	-0.15056373
118	0xbe9a07cc	-0.30084074
119	0xbd130c80	-0.035900593
120	0xbe5f149d	-0.21785207
121	0x3cccd911	0.02500585
122	0xbca4e689	-0.020129459
123	0x3d3d699c	0.046243295
124	0xbdb5ff9b	-0.088866435
125	0x3dc0fb64	0.09422949
126	0xbe6baafa	-0.23014441
127	0x3e34d7f2	0.17660502
128	0xbe4b7a4f	-0.19870876
129	0xbe7d51ff	-0.2473831
130	0x3f30720b	0.68924016
131	0x3e5446e0	0.20730162
132	0xbf39d540	-0.7259102
133	0xbdb18ca4	-0.08669403
134	0x3e46847b	0.19386475
135	0xbe9e754b	-0.30948862
136	0x3f24d5d8	0.643888
137	0x3e846627	0.25859186
138	0x3d17d513	0.037068438
139	0x3f3e8c04	0.74432397
140	0xbe2c5880	-0.16830635
141	0x3ec97b67	0.3935196
142	0xbe39ae5f	-0.18132924
143	0x3e2a3ad8	0.1662401
144	0xbce76df8	-0.02825068
145	0xbe01b4d5	-0.12666638
146	0xbd7cdc3a	-0.061733462
147	0x3cdc60db	0.026901653
148	0xbd38f52a	-0.04515568
149	0x3e24271d	0.16030546
150	0x3ddfa690	0.10920441
151	0x3f0b77cf	0.5447969
152	0x3eecdfd1	0.46264508
153	0xbe9a2bbb	-0.3011149
154	0xbee21abe	-0.44161028
155	0x3cd94534	0.026522256
156	0xbe659208	-0.22418988
157	0x3e810abe	0.25203508
158	0xbdadde89	-0.08489711
159	0xbe19ddf5	-0.15026076
160	0x3e4354bc	0.19075292
161	0x3cdd8b60	0.027043998
162	0xbeb14522	-0.34623057
163	0x3d41a657	0.047277775
164	0xbdac9cc8	-0.08428341
165	0x3f27e087	0.65576977
166	0x3ee3ff66	0.4453079
167	0xbcf9019c	-0.030396275
168	0xbebcd593	-0.36881694
169	0xbf068622	-0.5254842
170	0x3ec44d77	0.3834035
171	0x3daa3a4c	0.083119005
172	0x3eb139d9	0.34614447
173	0x3ed80530	0.42191458
174	0xbdf2a912	-0.11848654
175	0x3ed2d7ff	0.41180417
176	0xbc29e096	-0.010368487
177	0x3e66a8c5	0.22525318
178	0x3f16e726	0.58946455
179	0xbcecc55e	-0.028902706
180	0xbe2be9f3	-0.16788463
181	0x3efa0921	0.4883509
182	0x3f0b9862	0.5452939
183	0x3e1328fa	0.143711
184	0x3edb0439	0.4277666
185	0x3ec70013	0.38867244
186	0xbece3286	-0.4027292
187	0x3ed6febc	0.41991222
188	0xbf1a3ea2	-0.6025182
189	0xbdcb2aa4	-0.099202424
190	0xbe4cf4a6	-0.20015201
191	0xbdae82cc	-0.08521041
192	0xbf115f79	-0.56786305
193	0xbedb77c9	-0.42864826
194	0xbd9774ca	-0.073953226
195	0x3eba911e	0.3643884
196	0xbf430614	-0.7618115
197	0xbef4fed4	-0.47850668
198	0x3dd5ab96	0.10433118
199	0x3d0239bc	0.03179334
200	0x3f1d4c3d	0.61444455
201	0x3ee74798	0.4517181
202	0xbf44bb93	-0.76848716
203	0x3eaabfb2	0.33349377
204	0x3f02be35	0.5107148
205	0x3f4de4a9	0.8042703
206	0xbf46eda4	-0.7770636
207	0xbea3c2da	-0.31984597
208	0xbe49e602	-0.19716647
209	0xbea9aa23	-0.33137617
210	0x3e8a57d1	0.27020124
211	0xbe85606c	-0.26050127
212	0x3e2483e5	0.16065939
213	0xbf236a79	-0.6383434
214	0x3f41bf24	0.7568228
215	0xbdd04028	-0.10168487
216	0x3f1d9722	0.61558735
217	0x3ed1c111	0.4096761
218	0xbe8447a8	-0.2583592
219	0xbe2e5822	-0.17025807
220	0x3e6140d2	0.21997383
221	0x3e5a0361	0.21290351
222	0xbee244df	-0.4419317
223	0x3ebcfb66	0.36910552
224	0x3dc62435	0.09674875
225	0xbece56c6	-0.40300578
226	0xbf2ee1d6	-0.6831335
227	0xbed80a76	-0.4219548
228	0xbe15d633	-0.14632492
229	0x3eb4e739	0.3533266
230	0x3ee7bb95	0.452603
231	0x3f0f1e26	0.5590538
232	0x3f01060d	0.5039986
233	0xbee301e0	-0.44337368
234	0x3efb417e	0.49073404
235	0x3f221f4a	0.63328993
236	0x3e8b8355	0.27248636
237	0x3f22202c	0.6333034
238	0xbf0c9d3d	-0.54927427
239	0x3e7f2c1a	0.24919167
240	0x3e2b96ee	0.16756794
241	0x3f14460f	0.579194
242	0x3f022db6	0.50851
243	0x3e70adc1	0.23503782
244	0x3c5b700b	0.013393412
245	0x3d9c6bc9	0.07637746
246	0xbe9b7ce6	-0.30368727
247	0xbefaef4a	-0.49010688
248	0xbe361864	-0.17782742
249	0x3f23c4fc	0.6397245
250	0xbed6a3e8	-0.41921926
251	0x3ea34e72	0.31895787
252	0x3d8e269e	0.069409594
253	0x3e89638e	0.26833767
254	0xbd37a65f	-0.0448364
255	0x3ef1e3db	0.47244152

lstm.bias_ih_l0 f4 [256]
0	0xbe560962	-0.20902017
1	0xbde47459	-0.11155004
2	0xbb84c703	-0.0040520444
3	0xbf09cc82	-0.5382768
4	0xbe198a89	-0.14994253
5	0xbf27ddc3	-0.65572757
6	0xbe799a86	-0.24375352
7	0xbda9363d	-0.08262298
8	0x3ebb5323	0.36586866
9	0xbe7bd51d	-0.24593015
10	0xbee7f29f	-0.45302293
11	0xbeaaa4cf	-0.33328864
12	0x3dbb0a88	0.09132868
13	0xbf134b9d	-0.5753725
14	0xbca48b87	-0.020086063
15	0xbf534f17	-0.82542557
16	0xbf689dc0	-0.9086571
17	0xbf03ed72	-0.5153419
18	0xbdca395c	-0.09874222
19	0xbf22885c	-0.6348932
20	0x3d264f31	0.040602867
21	0xbf9318e4	-1.1491971
22	0xbc8dfde0	-0.017332971
23	0xbec9e6ae	-0.39433807
24	0xbf2cee3d	-0.6755102
25	0x3e130f75	0.14361365
26	0xbee14429	-0.43997315
27	0xbe42dc4d	-0.1902935
28	0xbb9395e8	-0.004503954
29	0xbe7078b5	-0.23483546
30	0xbe8d5705	-0.27605453
31	0x3e757e21	0.23973896
32	0xbef44481	-0.47708514
33	0xbe48dc6d	-0.19615336
34	0x3e6ef17d	0.23334308
35	0xbf0607ea	-0.52355826
36	0xbee513fc	-0.4474181
37	0xbea246f7	-0.31694767
38	0xbdf7dd7d	-0.121027924
39	0xbdb7e53b	-0.08979269
40	0x3b9b753f	0.0047442014
41	0xbf22e7fc	-0.6363523
42	0xbc97b740	-0.018519998
43	0xbf23f6d0	-0.6404848
44	0xbdad798d	-0.084704496
45	0xbd07d42a	-0.03316132
46	0xbe6ef411	-0.23335291
47	0xbea18019	-0.31543043
48	0xbf1b73cb	-0.6072356
49	0xbf156fd9	-0.5837379
50	0xbe6bc617	-0.23024784
51	0xbe679235	-0.22614367
52	0xbf186878	-0.59534407
53	0x3d8416e6	0.0644968
54	0xbeeec313	-0.46633205
55	0xbe8b10bf	-0.27161214
56	0xbf04de54	-0.51901746
57	0xbdd591b0	-0.10428178
58	0xbf0de4f4	-0.5542748
59	0x3ec5372b	0.38518652
60	0x3d1642a6	0.036684655
61	0xbe6e2012	-0.23254421
62	0xbd77c7a3	-0.060493123
63	0x3e4cee4f	0.20012783
64	0xbe463a7d	-0.19358249
65	0xbe0c7a56	-0.13718542
66	0xbcb5ce06	-0.022192966
67	0xbe822e33	-0.25425872
68	0x3d7a88da	0.061165668
69	0xbea2b2a0	-0.31776905
70	0xbe903929	-0.2816861
71	0xbeec39a4	-0.46137726
72	0xbba969e4	-0.005170094
73	0xbe939c09	-0.28829983
74	0xbf00b9bd	-0.50283414
75	0xbd9a08bd	-0.07521198
76	0xbd5350df	-0.051590797
77	0xbdb19e79	-0.086728044
78	0x3cb2f15c	0.021843605
79	0xbec463d1	-0.38357404
80	0xbf1ee24c	-0.6206405
81	0xbe2a1910	-0.16611123
82	0xbee263ac	-0.4421667
83	0x3db662be	0.08905552
84	0xbd35f4dd	-0.044422973
85	0xbf650399	-0.89458615
86	0xbde1376b	-0.10996898
87	0xbeb82e5d	-0.35972872
88	0xbe83dee6	-0.25755996
89	0x3d907226	0.07053022
90	0xbe4f1f20	-0.20226717
91	0x3d269def	0.04067796
92	0x3e035adb	0.12827627
93	0x3dc51383	0.09622862
94	0x3dfb3be1	0.1226728
95	0x3e3cd1ee	0.18439457
96	0xbeb420c3	-0.35181245
97	0xbe825787	-0.25457403
98	0x3d75067f	0.05982065
99	0xbe98b103	-0.2982255
100	0xbf290979	-0.6603008
101	0xbe30c547	-0.17262755
102	0xbe2926a4	-0.16518646
103	0x3de99b04	0.1140652
104	0x3e2e9cca	0.17051998
105	0xbf0b25d7	-0.54354614
106	0x3e8fcfeb	0.28088316
107	0xbec983bb	-0.39358315
108	0x3e8021a0	0.25025654
109	0x3db8e2be	0.09027623
110	0xbe1ecc55	-0.15507634
111	0xbe4374e7	-0.19087563
112	0x3e329371	0.17439057
113	0xbea99014	-0.33117735
114	0xbebd13fe	-0.36929315
115	0xbeae5394	-0.3404814
116	0xbe6e48a0	-0.23269892
117	0xbd81c66d	-0.06336675
118	0xbe8d1462	-0.27554613
119	0xbe5bff62	-0.2148414
120	0xbf18dd84	-0.59713006
121	0xbe7e2128	-0.24817336
122	0x3d36c3a2	0.044620164
123	0xbd98c23e	-0.07458924
124	0xbdcff975	-0.10155002
125	0x3c00a8bb	0.0078527285
126	0xbd52e46e	-0.05148738
127	0xbd98f5f1	-0.074687846
128	0x3e3a01a4	0.18164688
129	0x3e6efc1f	0.23338364
130	0xbe2aa6bd	-0.16665168
131	0xbe303132	-0.17206267
132	0x3e63a651	0.22231413
133	0x3e5310d1	0.20611884
134	0xbe13311d	-0.14374204
135	0x3df80def	0.121120326
136	0xbe8bb38e	-0.27285427
137	0x3bd65334	0.0065406803
138	0x3d8014f4	0.062539965
139	0xbdb0f3f4	-0.0864028
140	0xbe90619f	-0.2819948
141	0xbd39f428	-0.04539886
142	0x3e9cd3f3	0.30630454
143	0x3dbccceb	0.092187725
144	0x3d21cab6	0.03949996
145	0x3e2d3eee	0.16918537
146	0xbdb0a669	-0.0862549
147	0x3e073514	0.13203841
148	0xbe889ec7	-0.26683637
149	0xbdd9d1f0	-0.106357455
150	0xbe8a1b91	-0.26974156
151	0xbd7c3346	-0.061572336
152	0x3db50509	0.08838851
153	0xbe4c2312	-0.19935253
154	0xbde32036	-0.11090128
155	0x3e9499ea	0.29023677
156	0xbe8298ec	-0.25507295
157	0xbe696f6e	-0.22796413
158	0xbc3f82f5	-0.011688937
159	0xbda072ef	-0.07834422
160	0xbe8b6f19	-0.27233198
161	0x3e1a3993	0.15061025
162	0x3e09f963	0.1347404
163	0x3e39de58	0.18151224
164	0x3da70cdd	0.0815675
165	0xbda08e36	-0.078396246
166	0xbe0f3b98	-0.13987577
167	0xbe0e08e7	-0.13870583
168	0xbe3b5029	-0.18292297
169	0xbe0a28a5	-0.13492067
170	0xbdde05b6	-0.10840933
171	0xbe2d69a6	-0.16934833
172	0xbe149212	-0.14508846
173	0xbea04fd7	-0.31310913
174	0x3e6b908d	0.2300436
175	0xbe5edd3d	-0.21764083
176	0x3d4e6d98	0.050397485
177	0xbe119ef9	-0.142208
178	0xbe3735de	-0.17891642
179	0xbe4eb1b7	-0.2018498
180	0xbe3954e0	-0.18098783
181	0xbd206aa9	-0.03916422
182	0x3e5db1ca	0.21649852
183	0x3e2d5c83	0.16929822
184	0x3d925613	0.071453236
185	0xbe808142	-0.25098616
186	0x3c038d88	0.008029349
187	0xbdaba059	-0.08380193
188	0x3cea879e	0.02862912
189	0x3dfd3886	0.123642966
190	0xbe4a695b	-0.19766752
191	0xbe28032a	-0.16407457
192	0xbe697cc4	-0.228015
193	0x3d4db8b6	0.050224982
194	0xbe062ff3	-0.13104229
195	0xbf1ab14a	-0.6042677
196	0xbdcf678a	-0.101271704
197	0xbecb0ec7	-0.39659712
198	0xbea30ef5	-0.3184735
199	0xbcf62bf3	-0.030050253
200	0x3ea95400	0.330719
201	0xbe3549de	-0.1770396
202	0xbf0decb9	-0.55439335
203	0xbebb1830	-0.3654189
204	0x3cc1e652	0.023669396
205	0xbebf532d	-0.37368146
206	0xbb3f3e56	-0.0029181442
207	0xbf593a0d	-0.84854203
208	0xbf7ea2e6	-0.99467313
209	0xbed6c5bd	-0.41947737
210	0xbe483fde	-0.19555613
211	0xbee5521d	-0.4478921
212	0x3e5f04be	0.21779153
213	0xbf9d67a3	-1.2297252
214	0x3d8cb90e	0.06871234
215	0xbe992839	-0.299135
216	0xbf1b48dc	-0.6065805
217	0x3d93f9b9	0.07225365
218	0xbe505587	-0.20345126
219	0xbd99092b	-0.07472452
220	0x3def3388	0.11679751
221	0xbed23682	-0.4105721
222	0x3d4e6194	0.050386027
223	0x3e53a802	0.20669559
224	0xbf020493	-0.5078823
225	0xbe606f5c	-0.2191748
226	0x3e47bb19	0.19504966
227	0xbf04ccc6	-0.5187496
228	0xbeaafd39	-0.3339632
229	0xbed04d0a	-0.40683776
230	0xbcd568c5	-0.026050935
231	0xbd8fc2e5	-0.07019595
232	0x3c480df1	0.012210355
233	0xbf129862	-0.5726377
234	0x3e2a0a63	0.16605525
235	0xbf15617c	-0.58351874
236	0x3dda9686	0.10673241
237	0xbe00e8ad	-0.12588759
238	0xbcccd9d9	-0.025006222
239	0xbe85adcc	-0.2610916
240	0xbe28771a	-0.16451684
241	0xbf12c4c2	-0.5733148
242	0xbebfbf90	-0.37450838
243	0xbcc8875f	-0.024478612
244	0xbe98b5e9	-0.29826286
245	0x3e239224	0.15973717
246	0xbe4832df	-0.19550656
247	0xbe72d672	-0.23714617
248	0xbeadf549	-0.339762
249	0xbdad5c2c	-0.08464846
250	0xbea31ca8	-0.318578
251	0x3eef32c2	0.46718413
252	0xbd9f2a01	-0.077716835
253	0xbe9f624a	-0.31129676
254	0xbe4a3d50	-0.19749951
255	0x3f040844	0.5157511

lstm.bias_hh_l0 f4 [256]
0	0xbe83aa67	-0.25715944
1	0x3c92188e	0.017833974
2	0x39215c2b	0.00015388492
3	0xbf05462d	-0.52060205
4	0x3d3a420b	0.04547314
5	0xbf1af527	-0.6053032
6	0xbe49bc2a	-0.19700685
7	0xbe63df64	-0.22253186
8	0x3e8eb919	0.27875593
9	0xbdeb7d87	-0.11498552
10	0xbee20449	-0.44143894
11	0xbe791bad	-0.24326964
12	0xbd63a038	-0.05557272
13	0xbef057c4	-0.4694196
14	0x3d2f3c59	0.04278216
15	0xbf2b6bf7	-0.66961616
16	0xbf8a8f73	-1.0825027
17	0xbe9ec958	-0.31012988
18	0xbe866146	-0.2624609
19	0xbf08616a	-0.5327364
20	0xbda69445	-0.08133749
21	0xbf901f57	-1.1259564
22	0xbd998787	-0.07496553
23	0xbf126d6a	-0.571982
24	0xbf27b107	-0.655045
25	0x3e5a9613	0.21346311
26	0xbf09d218	-0.538362
27	0xbcce2a16	-0.025166553
28	0x3d9101be	0.070804104
29	0xbec156dc	-0.3776158
30	0xbe8a8f75	-0.27062574
31	0x3e66ef2f	0.22552179
32	0xbecd056f	-0.40043208
33	0xbe9b877e	-0.3037681
34	0x3e53127f	0.20612524
35	0xbeed0edc	-0.463004
36	0xbed4dcea	-0.41574794
37	0xbeb16ae7	-0.34651873
38	0xbe8cfde3	-0.2753745
39	0xbd83ca7c	-0.06435105
40	0xbc162be6	-0.00916574
41	0xbf37a460	-0.7173519
42	0xbd99f308	-0.07517058
43	0xbf185454	-0.59503675
44	0xbdb9a463	-0.090645574
45	0xbe02786b	-0.12741248
46	0xbea8e437	-0.32986614
47	0xbe98cd45	-0.29844108
48	0xbed6a5af	-0.41923282
49	0xbefddde8	-0.49583364
50	0xbec1e560	-0.37870312
51	0xbe50769d	-0.20357747
52	0xbee77e5d	-0.45213595
53	0xbcf0e643	-0.029406672
54	0xbebd489f	-0.36969468
55	0xbe991a05	-0.29902664
56	0xbf09cad2	-0.53825104
57	0xbe23bc1b	-0.15989725
58	0xbedec73e	-0.43511385
59	0x3ee6df23	0.45092115
60	0x3ddcf439	0.10788769
61	0xbe5b275a	-0.2140173
62	0xbe53935d	-0.20661683
63	0x3ed460d6	0.4148013
64	0xbe636813	-0.2220767
65	0xbde5ce1c	-0.11220953
66	0x3d689163	0.056779277
67	0xbeb3637e	-0.35036844
68	0xbd9633dd	-0.07334111
69	0xbed3d88e	-0.41376156
70	0xbecc2539	-0.3987215
71	0xbf1e9eb2	-0.619609
72	0x3e507c1a	0.20359841
73	0xbe8d6cef	-0.27622172
74	0xbf11a5cc	-0.5689361
75	0xbd52dd2c	-0.051480457
76	0x3dd591f8	0.10428232
77	0xbdc2b335	-0.09506837
78	0x3d42d2dc	0.047564372
79	0xbf04adb8	-0.51827574
80	0xbf33069c	-0.6993196
81	0xbe8e1886	-0.27753085
82	0xbec5620e	-0.38551372
83	0xbc580974	-0.013185848
84	0x3d2eb3dd	0.042652
85	0xbf599b41	-0.85002524
86	0xbe6c8393	-0.23097067
87	0xbf08ba28	-0.5340905
88	0xbeba87e8	-0.36431813
89	0x3d89f630	0.0673641
90	0xbe365f68	-0.17809832
91	0xbd83e631	-0.0644039
92	0xbd496c06	-0.049175285
93	0xbdaf32bb	-0.08554598
94	0x3dc4c886	0.09608559
95	0x3d73b6a9	0.05950037
96	0xbeb2815b	-0.34864315
97	0xbe52f50f	-0.20601295
98	0x3d9cbddb	0.076533996
99	0xbebaf1b5	-0.36512533
100	0xbf331957	-0.6996054
101	0xbe9d835c	-0.30764282
102	0xbdd2555b	-0.102701865
103	0x3d797049	0.0608981
104	0xbd292bed	-0.041301657
105	0xbf107875	-0.564338
106	0x3e9b98a9	0.30389908
107	0xbee8ebc1	-0.45492366
108	0x3daebcca	0.085321024
109	0x3dae6124	0.08514622
110	0xbd10595c	-0.03524147
111	0x3c98cd90	0.018652707
112	0x3e546b37	0.20744024
113	0xbec80c64	-0.39071953
114	0xbee33028	-0.44372678
115	0xbe81cfa6	-0.25353736
116	0xbe28dcf0	-0.16490531
117	0x3db5840a	0.08863075
118	0xbea56f9f	-0.32311723
119	0xbe4d9634	-0.20076829
120	0xbef5767c	-0.4794196
121	0xbe308f42	-0.17242149
122	0x3cb5033e	0.022096273
123	0xbde461a2	-0.111514345
124	0xbd333a59	-0.043756817
125	0x3d84a5a2	0.064769045
126	0xbe263c97	-0.1623405
127	0x3dda6d55	0.10665385
128	0x3e0c47ca	0.1369926
129	0x3e501129	0.20319046
130	0xbe3cee01	-0.18450166
131	0xbe14d892	-0.1453574
132	0x3e53ebad	0.20695372
133	0x3df68606	0.12037282
134	0xbe165021	-0.14679004
135	0x3e03c64a	0.1286861
136	0xbe026779	-0.12734784
137	0xbc04982e	-0.008092923
138	0x3e80ecfa	0.251808
139	0xbe3d152d	-0.18465109
140	0xbdb3387b	-0.08751007
141	0xbc16494b	-0.009172748
142	0x3e161c38	0.14659202
143	0x3e290f2d	0.16509695
144	0x3d2cad78	0.04215762
145	0x3e1fa540	0.15590382
146	0xbe8d30e8	-0.27576375
147	0xbd9573f0	-0.07297504
148	0xbdf9f425	-0.1220477
149	0x3e07f133	0.13275604
150	0xbe45b7b5	-0.1930836
151	0x3c0cb941	0.00858909
152	0xbd40a221	-0.04702962
153	0xbe0be60e	-0.13661978
154	0xbe3738a8	-0.17892706
155	0x3e6ff712	0.23434094
156	0xbdca3348	-0.09873062
157	0xbe0d582c	-0.13803166
158	0xbd4256e8	-0.04744616
159	0xbe8f3b2c	-0.27974832
160	0xbe22db5a	-0.15903988
161	0x3dcd5954	0.100268036
162	0x3e73faae	0.23826095
163	0x3e944631	0.28959802
164	0x3e1d9d95	0.15392144
165	0xbe504b84	-0.20341307
166	0xbdc947b6	-0.09828131
167	0xbd33d281	-0.043901924
168	0xbea382e5	-0.31935802
169	0xbd121a93	-0.035669874
170	0xbe2bb8cb	-0.16769712
171	0xbc352fef	-0.011058792
172	0xbdf3e206	-0.11908345
173	0xbe5deaf5	-0.2167166
174	0x3e0bf85f	0.13668965
175	0xbd6ddb3f	-0.058070417
176	0xba156503	-0.0005698951
177	0xbd8caacf	-0.06868517
178	0xbe26a1fe	-0.16272733
179	0xbe1a21af	-0.15051912
180	0xbe570260	-0.20997
181	0xbe7e82fb	-0.24854653
182	0x3ec394b7	0.38199398
183	0x3e0f6a29	0.1400534
184	0xbb56dc18	-0.0032784995
185	0xbde73937	-0.1129021
186	0x3d9d6e1f	0.076870196
187	0xbd4cf516	-0.05003842
188	0x3d5a3eaf	0.053282436
189	0x3d717d7f	0.058957573
190	0xbdb4a580	-0.08820629
191	0xbe8b758b	-0.27238116
192	0xbde10f9b	-0.10989305
193	0xbd9f984e	-0.07792722
194	0xbdaed872	-0.085373774
195	0xbf18d67e	-0.5970229
196	0x3c966653	0.018359339
197	0xbf04c34e	-0.5186051
198	0xbe8ca07d	-0.27466193
199	0xbd2f6685	-0.04282238
200	0x3e8ac047	0.2709982
201	0x3c80ff5d	0.015746767
202	0xbf1f5e9b	-0.6225373
203	0xbe9be502	-0.30448157
204	0x3c837640	0.016047597
205	0xbee91339	-0.45522478
206	0x3b0b637b	0.0021269012
207	0xbf511653	-0.8167469
208	0xbf84e6e0	-1.0382957
209	0xbe92c866	-0.28668517
210	0xbe111db4	-0.14171487
211	0xbf09ae5c	-0.53781676
212	0x3d3f8c5a	0.04676471
213	0xbf9c7aef	-1.2225016
214	0x3d561f02	0.052275665
215	0xbee3a96d	-0.444652
216	0xbf3cd7d2	-0.73766816
217	0x3c2ea134	0.010658551
218	0xbecc0d71	-0.39854005
219	0xbc8cec3e	-0.017202493
220	0x3e977444	0.2958089
221	0xbe948436	-0.2900712
222	0x3d1dba5c	0.038507804
223	0x3ea8fa5c	0.3300351
224	0xbeb9e13d	-0.36304656
225	0xbe3ca87a	-0.18423644
226	0x3e9a464b	0.30131754
227	0xbeb7481c	-0.35797203
228	0xbefbde79	-0.4919317
229	0xbe9f1b00	-0.31075287
230	0xbd9cfd7f	-0.07665538
231	0xbe6e5421	-0.2327428
232	0xbcf63175	-0.03005288
233	0xbf3a0584	-0.72664666
234	0x3deda964	0.11604574
235	0xbf3fa8c6	-0.748669
236	0x3c9e3216	0.019310992
237	0xbd5e95a2	-0.05434192
238	0xbdb24bc1	-0.08705855
239	0xbecc59a4	-0.3991214
240	0xbe87c756	-0.2651927
241	0xbed39707	-0.41326162
242	0xbecce554	-0.40018713
243	0x3d42d734	0.047568515
244	0xbee0b993	-0.43891582
245	0x3e04a02c	0.12951726
246	0xbe993433	-0.29922637
247	0xbec97d5e	-0.3935346
248	0xbed3c481	-0.41360858
249	0x3da74b66	0.08168678
250	0xbedcc88c	-0.43121755
251	0x3eef9370	0.46792173
252	0xbe50c5b6	-0.2038792
253	0xbe197dcb	-0.14989392
254	0xbd2e9fb8	-0.04263279
255	0x3ee2e34a	0.44314033

lstm.weight_ih_l1 f4 [256, 64]
0	0x3ec4e6fd	0.3845748
1	0x3ec3352c	0.38126504
2	0xbdc80831	-0.097671874
3	0x3e28ae12	0.16472653
4	0x3ee8a48d	0.45438042
5	0x3e4cba92	0.19993046
6	0x3e9644a3	0.2934924
7	0xbc5f9650	-0.013646677
8	0xbe508cd6	-0.20366225
9	0xbeb9261d	-0.3616189
10	0x3d59a720	0.0531379
11	0xbdba388c	-0.09092817
12	0xbe7236da	-0.23653737
13	0xbe952aaf	-0.29134127
14	0x3f21744e	0.6306809
15	0x3e8d6fdc	0.27624404
16	0x3dbded58	0.09273785
17	0x3ebaa194	0.364514
18	0xbe14e628	-0.14540923
19	0x3f075eb9	0.5287891
20	0xbe17901d	-0.14801069
21	0x3d5d7c2e	0.054073505
22	0xbeee05b6	-0.46488732
23	0x3dc858d9	0.09782571
24	0xbe811070	-0.25207853
25	0xbebc0011	-0.367188
26	0x3ec6a4e7	0.38797686
27	0x3e8c08f3	0.27350578
28	0xbefffa28	-0.49995542
29	0xbe3c1f71	-0.18371369
30	0x3ebf5aa3	0.37373838
31	0xbf037f7a	-0.5136639
32	0x3d6d1ca2	0.057888635
33	0xbe1c0136	-0.15234837
34	0x3e645c28	0.2230078
35	0x3e7122bf	0.23548411
36	0x3e35249c	0.17689747
37	0xbe41dab8	-0.18931091
38	0xbf002dec	-0.5007007
39	0xbf0b6a1a	-0.54458773
40	0xbebe480d	-0.37164345
41	0x3e84588d	0.2584881
42	0xbf133af2	-0.5751182
43	0xbd8a0f8f	-0.06741249
44	0xbf163caa	-0.58686316
45	0xbf06ceac	-0.52659106
46	0x3f06d2d1	0.5266543
47	0xbdaf49bf	-0.08558988
48	0xbf0cad92	-0.5495235
49	0xbe17af9e	-0.14813086
50	0xbee5f59e	-0.44913954
51	0x3c12b0fe	0.008953331
52	0x3e5a2f9a	0.21307221
53	0xbf437c6d	-0.76361734
54	0xb7768c00	-1.4695339e-05
55	0x3e71d895	0.23617776
56	0xb998b88c	-0.00029129197
57	0xbea2804f	-0.31738517
58	0x3ef4810b	0.47754702
59	0xbf6d8554	-0.9278157
60	0x3f1708dc	0.58997893
61	0xbd4d71ec	-0.050157472
62	0x3dc33c80	0.09533024
63	0xbf5a997f	-0.85390466
64	0xbd1d3a0b	-0.038385432
65	0xbdfb420c	-0.12268457
66	0x3e0c24fd	0.13685985
67	0x3c9bb27f	0.019006012
68	0xbe93e016	-0.28881902
69	0xbe7f7563	-0.24947123
70	0x3ec690a9	0.38782242
71	0xbdcd127a	-0.1001329
72	0x3eb7e3d2	0.35916
73	0xbd8be28a	-0.06830318
74	0xbeac1d34	-0.3361603
75	0x3e3431d9	0.1759714
76	0x3ee07632	0.43840176
77	0x3eed714a	0.46375495
78	0xbf14e3d5	-0.58160144
79	0x3ce29c98	0.02766256
80	0xbe13be67	-0.14428101
81	0xbe194dcb	-0.14971082
82	0x3eb117fc	0.3458861
83	0x3e8c2c65	0.2737762
84	0xbd0958bc	-0.03353189
85	0xbdf613a1	-0.12015463
86	0x3f1e0ccb	0.6173827
87	0xbe15c651	-0.14626433
88	0xbe1e0969	-0.15433277
89	0x3f59f7da	0.85143816
90	0x3f039edc	0.51414275
91	0xbf10bf60	-0.56542015
92	0x3f32870b	0.6973731
93	0x3ea29399	0.31753233
94	0x3e3df794	0.18551475
95	0x3ef65864	0.48114312
96	0x3ee9fa58	0.4569881
97	0xbeb3f855	-0.351504
98	0xbe161777	-0.14657389
99	0xbdcfb7a7	-0.10142451
100	0xbee13353	-0.4398447
101	0xbd1beebf	-0.038069483
102	0x3e4178f0	0.1889379
103	0x3e86d857	0.2633693
104	0x3f5be63c	0.85898185
105	0xbedaf37f	-0.42763898
106	0x3f2a0241	0.6640969
107	0x3cff778a	0.03118493
108	0x3dedd678	0.11613172
109	0x3eda5969	0.4264634
110	0xbec5852b	-0.38578162
111	0x3df902f0	0.121587634
112	0xbd1f439a	-0.03888283
113	0x3eb6d258	0.35707355
114	0x3efacd7d	0.489849
115	0x3f249044	0.6428263
116	0x3ebe963a	0.3722399
117	0x3e8b0258	0.27150226
118	0xbeecc0a1	-0.46240714
119	0xbe21ec06	-0.15812692
120	0xbe30d68c	-0.17269343
121	0x3f225845	0.6341594
122	0xbe86b503	-0.26309976
123	0xbd39ac05	-0.045330066
124	0xbf32df71	-0.69872195
125	0xbe2f1bba	-0.1710042
126	0x3f580588	0.8438344
127	0x3f17ed81	0.5934678
128	0x3c034249	0.008011409
129	0xbdf34679	-0.11878676
130	0x3ecf7859	0.40521505
131	0x3e043494	0.12910682
132	0x3eb1039a	0.3457306
133	0x3d656124	0.056000844
134	0x3ed629b2	0.41828686
135	0xbf2f85ca	-0.6856352
136	0x3d8ace05	0.06777576
137	0xbdc70cd8	-0.097192466
138	0xbe5fca68	-0.21854556
139	0xbf0528d6	-0.52015436
140	0x3dc4709f	0.09591793
141	0xbee5b830	-0.44867086
142	0x3e77b074	0.24188405
143	0xbe95be96	-0.29246968
144	0xbe1117d3	-0.14169244
145	0xbea8ee94	-0.3299452
146	0x3f29ba58	0.66299963
147	0xbea5c69d	-0.32378092
148	0x3ebe1ef7	0.37133
149	0x3e0e73dc	0.13911384
150	0xbec8ba94	-0.39204848
151	0x3e2d4c2c	0.16923589
152	0xbe77a9e0	-0.24185896
153	0xbe7f92da	-0.24958363
154	0x3f37b421	0.7175923
155	0xbe9b1e17	-0.30296394
156	0x3dfdc1a1	0.123904474
157	0xbe195c88	-0.14976704
158	0x3da807d7	0.0820462
159	0x3bd40e97	0.006471466
160	0x3eaf16df	0.34197137
161	0x3e5ac217	0.21363102
162	0x3dc5e481	0.09662724
163	0xbef240d2	-0.4731508
164	0xbf3994b4	-0.7249253
165	0x3ced0393	0.028932368
166	0x3d49f494	0.049305514
167	0xbf226de1	-0.6344891
168	0x3e24e164	0.16101605
169	0x3eaf6205	0.3425447
170	0xbeb00fd3	-0.34387073
171	0x3ed22851	0.41046384
172	0xbba35130	-0.0049840435
173	0xbd0c4daf	-0.034253772
174	0x382bc558	4.0953368e-05
175	0xbe102108	-0.140751
176	0xbdba2fbc	-0.09091136
177	0xbea0e7b1	-0.31426767
178	0x3f312994	0.6920407
179	0x3f6bdf39	0.92137486
180	0x3ecbf44e	0.39834827
181	0x3bf305d9	0.0074164686
182	0x3d10fdf4	0.03539844
183	0x3e0c797d	0.13718219
184	0x3e51114f	0.20416759
185	0xbe40ce2b	-0.18828647
186	0x3e9eddba	0.3102854
187	0xbf637406	-0.8884891
188	0x3f86870d	1.0509964
189	0x3f05d9c0	0.52285385
190	0x3f1d65a2	0.61483204
191	0xbeafb9cb	-0.34321436
192	0xbd118244	-0.03552462
193	0x3e6fa17a	0.23401442
194	0x3e5da260	0.21643972
195	0xbe13a0a8	-0.14416754
196	0x3f0c82e3	0.5488722
197	0x3e04690e	0.129307
198	0x3f12a6e6	0.57285917
199	0xbe40d2bc	-0.18830389
200	0x3dd10d70	0.10207641
201	0x3da21cf2	0.07915677
202	0xbe6de740	-0.23232746
203	0xbd803510	-0.06260121
204	0xbee5e629	-0.4490216
205	0xbeb96ed4	-0.36217368
206	0x3f487a10	0.7831125
207	0xbe821d49	-0.25412968
208	0xbd69f3ae	-0.057117157
209	0x3d6671b3	0.056260776
210	0xbdaa7d4c	-0.0832468
211	0x3e66a265	0.22522886
212	0x3d9ea264	0.07745817
213	0xbe6a8cc2	-0.22905257
214	0xbd8a4e6c	-0.06753239
215	0x3eabec90	0.3357892
216	0xbeaa03aa	-0.3320592
217	0xbddda878	-0.108231485
218	0x3f5fba14	0.8739331
219	0xbc025429	-0.007954636
220	0xbe9ca64e	-0.3059563
221	0xbe273871	-0.16330124
222	0x3f80e701	1.0070497
223	0xbe676c02	-0.22599795
224	0x3e77fbae	0.24217102
225	0xbd8f66ff	-0.07002067
226	0xbe26978d	-0.1626875
227	0xbe04d18f	-0.12970565
228	0xbe15cf4f	-0.14629863
229	0xbeb0b420	-0.34512424
230	0xbf3f2af8	-0.7467494
231	0xbf376f50	-0.71654224
232	0xbeb51ae6	-0.35372084
233	0x3e6c20a8	0.23059332
234	0xbe8b29ad	-0.27180234
235	0x3de6c180	0.11267376
236	0xbeda2c31	-0.4261184
237	0xbeb4bf20	-0.35302067
238	0x3ea60963	0.32429036
239	0xbdae6d78	-0.08516973
240	0xbda43be5	-0.080192365
241	0xbe0240bd	-0.12720008
242	0x3e7fd176	0.24982247
243	0x3e3a44cf	0.18190311
244	0x3e116570	0.14198852
245	0xbf75f0b9	-0.9607044
246	0x3e71ffce	0.23632738
247	0xbc6478ad	-0.013944787
248	0xbeed71f7	-0.4637601
249	0xbe09ca6f	-0.13456129
250	0x3ebd4f3d	0.36974517
251	0xbf79da23	-0.97598475
252	0xbc49e025	-0.012321507
253	0xbf02c21f	-0.51077455
254	0x3e99e245	0.30055442
255	0xbe907329	-0.2821286

lstm.weight_hh_l1 f4 [256, 64]
0	0x3e49274a	0.19643894
1	0xbec9245c	-0.39285553
2	0x3d9cf3ba	0.07663675
3	0x3d21a0a8	0.039459854
4	0xbe2069a3	-0.15665297
5	0x3dad7a5e	0.08470605
6	0x3d76fe93	0.060301375
7	0xbe69fb8a	-0.22849861
8	0xbdcfc05c	-0.101441115
9	0xbd98512a	-0.07437356
10	0x3e8fe496	0.28104085
11	0xbdc13379	-0.09433646
12	0x3e1fe829	0.15615906
13	0x3da03e12	0.07824339
14	0x3e4b1519	0.19832267
15	0xbdd3dc60	-0.103447676
16	0x3ec4c6ed	0.38433018
17	0xbe3d56f3	-0.184902
18	0xbd0713ac	-0.032977745
19	0xbd40f46d	-0.047108103
20	0xbe53b392	-0.2067397
21	0xbe8bcbac	-0.27303827
22	0xbe2a4099	-0.16626205
23	0xbde0ff84	-0.10986236
24	0x3d022dee	0.031782083
25	0x3e5be713	0.21474867
26	0x3d8e30a5	0.06942872
27	0x3e6aad81	0.22917749
28	0xbdce70dc	-0.1008012
29	0xbd424109	-0.047425304
30	0x3de270af	0.11056649
31	0xbe0ee9c8	-0.13956368
32	0x3d1cbc6f	0.03826564
33	0x3dce6fae	0.10079895
34	0xbdecb898	-0.11558646
35	0x3cabbfcc	0.02096548
36	0x3e39a92b	0.18130939
37	0xbadba202	-0.0016756656
38	0xbe92c1a1	-0.28663352
39	0x3e30647f	0.17225836
40	0x3e21771d	0.15768094
41	0xbe7966eb	-0.24355666
42	0x3e0fb5d7	0.1403421
43	0x3e727c4a	0.23680225
44	0xbe32fb7b	-0.17478745
45	0x3e77119f	0.24127816
46	0xbd808ddb	-0.06277057
47	0x3d2d4e69	0.042311106
48	0xbe03fe82	-0.12890056
49	0x3dcef0b1	0.10104502
50	0x3e0b4137	0.13599096
51	0xbe77037d	-0.24122424
52	0xbc8ddc59	-0.017316984
53	0xbdaa52ac	-0.0831655
54	0xbe8a814f	-0.2705178
55	0xbca1ddab	-0.01975902
56	0xbdad17b3	-0.08451786
57	0xbd98995d	-0.07451127
58	0x3df900f7	0.12158387
59	0x3e419adb	0.18906729
60	0x3da51ab9	0.080617376
61	0x3e5f12d0	0.2178452
62	0x3eab3f21	0.334466
63	0x3e19b469	0.15010227
64	0x3e12f193	0.14349966
65	0xbea92ebf	-0.33043477
66	0xbea1d827	-0.31610224
67	0x3c881abc	0.01661431
68	0xbe5a474c	-0.2131626
69	0x3ed4cfd0	0.41564798
70	0x3e156770	0.1459024
71	0xbe7a66d2	-0.24453285
72	0xbede142b	-0.43374762
73	0xbe92cd8d	-0.28672448
74	0xbe1c4c37	-0.15263449
75	0xbe0fd726	-0.14046916
76	0xbe23f7fa	-0.16012564
77	0x3e0cc4f8	0.13747013
78	0x3d1edf04	0.038786903
79	0x3d3fcdb5	0.046827037
80	0x3eaff345	0.34365287
81	0xbd8a55b3	-0.06754627
82	0xbb9ea72f	-0.004841707
83	0xbe07404b	-0.1320812
84	0x3e470fb1	0.1943958
85	0xbe9f14c4	-0.3107053
86	0xbdb88f16	-0.090116665
87	0xbe2303f8	-0.15919483
88	0xbe1c063c	-0.15236753
89	0x3de2aa55	0.110676445
90	0x3cb0b11d	0.02156883
91	0x3e8c24ad	0.2737173
92	0xbdf38363	-0.118902944
93	0xbde51872	-0.11186303
94	0x3ec4553b	0.38346276
95	0xbe98205c	-0.29712188
96	0xbebc982c	-0.36834848
97	0xbe977a7a	-0.2958563
98	0x3e5bd5a9	0.21468224
99	0xbea00cda	-0.31259805
100	0x3e75200c	0.23938006
101	0x3e9d491b	0.30719838
102	0xbdabdc78	-0.083916605
103	0x3ecbbd1f	0.39792725
104	0xbe64a2e1	-0.22327758
105	0xbded841f	-0.11597466
106	0x3e92ff1e	0.28710264
107	0x3e8e2c43	0.27768144
108	0xbe953f47	-0.2914984
109	0x3d100b2a	0.035166897
110	0x3cb02b1e	0.021504935
111	0x3e960901	0.29303744
112	0xbdf34436	-0.118782446
113	0x3da0cfcb	0.07852133
114	0x3eb8b9ed	0.3607935
115	0xbd8d4227	-0.06897383
116	0x3e8ed259	0.27894858
117	0x3e53a79f	0.20669411
118	0xbda50bd6	-0.08058898
119	0xbd12f25a	-0.035875656
120	0xbe439a99	-0.19101943
121	0xbcaf855c	-0.021425895
122	0x3e29001f	0.16503952
123	0x3e1cead4	0.15323955
124	0xbe94194a	-0.28925544
125	0xbdff741c	-0.12473318
126	0x3e0c90f3	0.13727169
127	0xbebd68bd	-0.3699397
128	0x3aabbae2	0.001310196
129	0x3ea7a3ce	0.3274216
130	0x3c6859b5	0.014181544
131	0x3e06ae4e	0.1315243
132	0xbe04564b	-0.12923543
133	0x3d7c50a0	0.061600327
134	0xbe1bda56	-0.15220007
135	0xbdb80ecd	-0.08987198
136	0xbe7af97e	-0.24509236
137	0xbe04d00b	-0.12969987
138	0x3eb55d19	0.3542259
139	0xbeaee70a	-0.34160644
140	0xbc65a90b	-0.014017354
141	0xbea4f74c	-0.32219923
142	0x3e84f7c1	0.2597027
143	0xbe97a64f	-0.2961907
144	0x3eb9160d	0.36149636
145	0xbe842ef0	-0.2581706
146	0x3ebcde57	0.36888382
147	0xbdfd6074	-0.123719126
148	0xbe01c18b	-0.12671487
149	0x3e6b4c86	0.2297841
150	0xbe65f436	-0.2245644
151	0xbe106c60	-0.14103842
152	0x37949116	1.7710536e-05
153	0x3deb7da4	0.114985734
154	0xbe547d22	-0.2075086
155	0xbda2e176	-0.079531595
156	0x3e8170b4	0.25281298
157	0xbde23ef9	-0.11047167
158	0xbd39ebb3	-0.045390796
159	0xbe343f44	-0.17602259
160	0xbe47c096	-0.1950706
161	0x3d2cd840	0.04219842
162	0xbe846f53	-0.25866184
163	0x3e28c6d6	0.164821
164	0xbd453fe9	-0.048156653
165	0xbeb856f1	-0.3600383
166	0x3c7cc8b2	0.015428709
167	0x3d92e7fe	0.07173155
168	0x3d5eabfd	0.05436324
169	0xbea119c0	-0.31464958
170	0x3d97d034	0.074127585
171	0x3e22516c	0.15851372
172	0xbdfb49fa	-0.12269969
173	0x3d7e21ea	0.06204406
174	0x3e335123	0.1751142
175	0x3e33ca53	0.1755765
176	0xbd906324	-0.070501596
177	0x3ed8a5f9	0.42314127
178	0x389713f8	7.2039606e-05
179	0xbe077275	-0.13227256
180	0x3e660ddd	0.22466226
181	0xbec76757	-0.3894603
182	0xbd7b807c	-0.06140183
183	0x3e787641	0.2426386
184	0xbe5f5924	-0.21811348
185	0xbdbc566f	-0.091961734
186	0x3cf3bced	0.029753173
187	0x3b2c3796	0.002627825
188	0x3f0217ad	0.50817376
189	0x3e637baa	0.22215143
190	0x3e45da98	0.19321668
191	0x3ced9845	0.029003272
192	0xbe175b15	-0.14780839
193	0x3e4f9ec2	0.20275405
194	0x3ef88699	0.4854019
195	0xbe34218b	-0.1759092
196	0x3e024808	0.1272279
197	0x3ddb1bb0	0.1069864
198	0xbe4ff671	-0.20308854
199	0xbdb0b8eb	-0.0862902
200	0x3d1fb2f0	0.038989007
201	0x3dcd0382	0.10010435
202	0x3d8d8991	0.06911004
203	0xbeb2fcfc	-0.34958637
204	0xbc4ec012	-0.012619035
205	0xbed3fef5	-0.41405454
206	0xbd3bc8a8	-0.045845658
207	0x3e827df5	0.25486723
208	0x3f1bc139	0.6084171
209	0x3e066bc7	0.13127051
210	0x3d949250	0.072544694
211	0xbe0df82d	-0.13864203
212	0xbcaeb4b6	-0.021326404
213	0x3e883b3d	0.26607695
214	0x3d133704	0.03594114
215	0x3ddf3f77	0.10900777
216	0x3da85d13	0.082208775
217	0xbc69796a	-0.014250139
218	0xbd139190	-0.03602749
219	0xbe43082d	-0.19046088
220	0x3eec8d40	0.46201515
221	0xbbc5dd13	-0.006038317
222	0xbdb1b642	-0.08677341
223	0x3d0769e8	0.033059984
224	0x3c49fd08	0.012328394
225	0xbde94b7d	-0.11391351
226	0x3eb8420a	0.35987884
227	0x3f24750d	0.64241105
228	0x3df9a96d	0.121905185
229	0x3d1f5e1a	0.0389081
230	0xbdddd776	-0.108321115
231	0x3dc32132	0.09527816
232	0x3db54be9	0.08852369
233	0xbf1efcb9	-0.62104374
234	0x3b6d2ebd	0.0036191188
235	0x3e5025bc	0.20326895
236	0x3d316b53	0.043315243
237	0x3d024141	0.031800512
238	0xbd0035ea	-0.031301416
239	0x3cb1ed33	0.02171955
240	0x3e0fe57c	0.14052385
241	0xbd1b5fa9	-0.037933026
242	0xbdf00f51	-0.117216714
243	0xbd71e5b1	-0.05905694
244	0xbe3c6df1	-0.18401314
245	0xbe101dee	-0.14073917
246	0x3d9ec06b	0.077515446
247	0xbd36ce3c	-0.044630274
248	0xbd3dd802	-0.04634858
249	0xbdd328f9	-0.10310549
250	0x3d8bf1b6	0.06833212
251	0xbd94161d	-0.0723078
252	0x3d4b4a85	0.049631614
253	0xbdefa6eb	-0.11701759
254	0x3e05a403	0.13050847
255	0x3ebf8e98	0.37413478

lstm.bias_ih_l1 f4 [256]
0	0x3d6ac446	0.057316087
1	0xbdf1776a	-0.117903545
2	0xbd8a48f9	-0.067522
3	0xbdddae9b	-0.10824319
4	0x3d0e7a64	0.03478469
5	0xbea78e0c	-0.3272556
6	0x3df05b85	0.11736206
7	0x3e93832d	0.28811017
8	0xbd89c79d	-0.06727526
9	0x3e2ff84c	0.17184561
10	0xbe6d4e0f	-0.23174308
11	0x3c037107	0.008022553
12	0x3c6b6be6	0.014368987
13	0x3d8901c6	0.066897914
14	0xbe5dfd70	-0.2167871
15	0xbdf110e7	-0.11770802
16	0xbc5c4780	-0.013444781
17	0xbd949f7b	-0.07256981
18	0x3e50aaa4	0.20377594
19	0xbe125dc2	-0.14293578
20	0xbd4bf437	-0.04979345
21	0x3ef37e38	0.47557235
22	0xbe05859a	-0.13039246
23	0xbea3db1c	-0.32003105
24	0xbe33243c	-0.17494291
25	0xbd5d908e	-0.054092936
26	0xbebc5449	-0.36783054
27	0x3e83f322	0.25771433
28	0x3e6c8ce2	0.23100618
29	0xbe26ddde	-0.16295573
30	0x3e99de6f	0.30052516
31	0x3eda1776	0.42596024
32	0xbe3abd29	-0.18236221
33	0xbdf130d3	-0.117768906
34	0xbe048c5c	-0.12944168
35	0x3e251c9c	0.16124195
36	0x3e33100b	0.17486589
37	0x3e9d420c	0.30714452
38	0x3ee59e0f	0.44847152
39	0xbe142416	-0.1446689
40	0xbd3bffa8	-0.04589811
41	0x3ed45389	0.41469982
42	0xbdecd9c2	-0.115649715
43	0xbe0b5902	-0.13608173
44	0xbd920c99	-0.07131309
45	0xbdb3f427	-0.08786803
46	0xbe337b95	-0.17527612
47	0xbe68261b	-0.22670786
48	0xbe9124c1	-0.28348354
49	0xbe3a250b	-0.18178193
50	0xbde832db	-0.11337825
51	0x3ea3b1e8	0.3197167
52	0x3cbfcb16	0.023412269
53	0x3e5df568	0.21675646
54	0xbdb282da	-0.08716364
55	0xbe5d1bdc	-0.21592659
56	0x3e03acdf	0.12858914
57	0xbe3fa8d7	-0.18716751
58	0xbe85bcb9	-0.26120546
59	0x3e176b2a	0.14786974
60	0xbe9ac377	-0.30227253
61	0xbe7fa8ad	-0.24966688
62	0x3e3d0fce	0.1846306
63	0xbe73b425	-0.23799188
64	0xbdc4a2f8	-0.09601396
65	0xbeb48a59	-0.352618
66	0x3e0dc94e	0.13846323
67	0xbe14df2e	-0.14538261
68	0xbe3225a5	-0.17397173
69	0x3d30f6a9	0.043203983
70	0xbdeb523c	-0.11490294
71	0xbe49b204	-0.19696814
72	0xbe1d9a1a	-0.15390816
73	0x3ec3b326	0.38222617
74	0x3e8d1c66	0.2756073
75	0xbdbbbd9d	-0.09167025
76	0xbe76544c	-0.24055594
77	0xbec46ca8	-0.38364148
78	0xbea082c9	-0.3134978
79	0x3e077444	0.13227946
80	0x3e41741b	0.18891947
81	0xbe8c2dc6	-0.27378672
82	0x3e4652e4	0.19367558
83	0x3e2c7129	0.16840042
84	0xbe051d8d	-0.12999554
85	0x3d9c37e3	0.07627847
86	0xbdb57891	-0.08860887
87	0xbdbf26b4	-0.09333554
88	0xbc95031a	-0.018189956
89	0xbe869ca5	-0.26291385
90	0xbe87759b	-0.26456913
91	0x3e00b45d	0.12568803
92	0xbcad0f6e	-0.021125522
93	0xbe1209b7	-0.14261518
94	0x3ba8b4a5	0.0051484876
95	0x3f0cc88e	0.5499352
96	0xbc2b2746	-0.010446375
97	0xbd861e18	-0.06548709
98	0xbe029ecb	-0.12755887
99	0xbc957379	-0.018243538
100	0xbd4e1e2a	-0.050321735
101	0xbdd418e2	-0.103563085
102	0x3f2737b3	0.65319365
103	0xbe8bd4ba	-0.27310735
104	0xbe4ec8aa	-0.20193735
105	0x3e58b3e0	0.21162367
106	0xbea1cd38	-0.31601882
107	0xbe030290	-0.12793946
108	0xbcd3ce25	-0.025855133
109	0x3c5e0b29	0.0135524655
110	0xbe243dc7	-0.16039191
111	0xbe4e292a	-0.2013289
112	0xbe3fc578	-0.18727672
113	0xbccb7672	-0.024836753
114	0xbe8d4ecd	-0.27599183
115	0xbcbb2690	-0.022845536
116	0x3e465328	0.19367659
117	0x3db19e82	0.08672811
118	0xbe893f05	-0.26805893
119	0x3e7fa989	0.24967016
120	0xbe697140	-0.22797108
121	0x3e50e9fb	0.20401756
122	0x3d1deede	0.03855788
123	0x3d9d526e	0.07681738
124	0xbd4d3ffc	-0.05010985
125	0x3d124938	0.035714358
126	0xbde80436	-0.11328928
127	0x3ba2ce8b	0.0049684695
128	0xbefe1f2d	-0.4963316
129	0x3e805251	0.25062802
130	0x3df08407	0.11743932
131	0x3db49c7d	0.0881891
132	0x3e80d4e6	0.2516243
133	0xbe27efc3	-0.16400056
134	0xbe673e3d	-0.22582336
135	0x3ea80bbf	0.32821462
136	0x3e5ee8ac	0.21768445
137	0xbdc47485	-0.09592537
138	0x3d61c111	0.055115763
139	0xbdf01bf4	-0.11724082
140	0xbd92463f	-0.07142305
141	0xbe827c46	-0.25485438
142	0xbe91194a	-0.28339607
143	0x3e0d49d7	0.13797699
144	0x3dc914ce	0.09818421
145	0x3d32f239	0.043688033
146	0xbe868339	-0.2627199
147	0x3e5f33df	0.21797131
148	0x3ead21f0	0.33814955
149	0x3ea066a0	0.31328297
150	0x3ea69514	0.32535613
151	0x3e196c8f	0.14982818
152	0xbd166e82	-0.036726482
153	0xbea23311	-0.31679586
154	0xbecbd7bd	-0.39813033
155	0xbdaca622	-0.08430125
156	0x3e4c69b0	0.19962192
157	0x3ecce9bc	0.40022075
158	0xbed64fb7	-0.41857693
159	0xbedb9a24	-0.42891037
160	0x3e972bab	0.29525504
161	0xbe7846ac	-0.24245709
162	0x3e7fc5ca	0.24977794
163	0x3e33541e	0.17512557
164	0x3e53255f	0.20619725
165	0x3dbb454d	0.091440775
166	0x3e45e313	0.19324903
167	0xbe8c82cf	-0.2744355
168	0xbe54cf2e	-0.20782158
169	0xbd1a7fcb	-0.03771953
170	0xbeddccfc	-0.43320453
171	0xbddd004b	-0.107910715
172	0x3e81dbfa	0.2536314
173	0xbe933610	-0.28752184
174	0x3eb78a23	0.35847577
175	0xbe908a0d	-0.28230324
176	0x3e5ef7e3	0.21774249
177	0x3dd424ba	0.103585675
178	0xbe9c89ab	-0.30573782
179	0xbd9d98a3	-0.07695129
180	0xbe4f6b90	-0.20255876
181	0xbd188038	-0.037231654
182	0x3e47e9ca	0.19522777
183	0x3d44a9b9	0.048013423
184	0xbecf5e48	-0.40501618
185	0x3e1ce1fd	0.15320583
186	0xbe74f3fe	-0.239212
187	0xbded40f1	-0.11584652
188	0x3de992bc	0.114049405
189	0xbca0e0dd	-0.019638473
190	0xbea5fc27	-0.3241894
191	0x3e38d57a	0.18050185
192	0xbe014c9e	-0.12626883
193	0xbdecf91f	-0.115709536
194	0x3e7c53e1	0.24641372
195	0xbdf0970f	-0.11747562
196	0x3d143a1d	0.036188234
197	0x3dddeb91	0.10835946
198	0x3e3439c8	0.17600167
199	0xbdfb4d3b	-0.1227059
200	0xbecc28f7	-0.39875004
201	0xbde887f2	-0.113540545
202	0xbdbd9ee5	-0.09258822
203	0x3dfea2f9	0.12433428
204	0xbd720208	-0.05908397
205	0x3d1d4a24	0.038400784
206	0xbe399eea	-0.18127027
207	0x3eec2af7	0.4612653
208	0x3de75737	0.11295932
209	0xbcdeb4ea	-0.027185876
210	0x3ec13f43	0.37743577
211	0x3ec1634f	0.3777108
212	0x3e19d740	0.15023518
213	0x3f0eb03d	0.5573767
214	0x3dd0f52c	0.10203013
215	0xbea48d97	-0.32139274
216	0x3c0c981d	0.0085811885
217	0xbd980721	-0.07423235
218	0x3cd39c14	0.02583126
219	0xbe44af88	-0.19207585
220	0x3e3f4322	0.18677953
221	0x3cd4f156	0.025993984
222	0x3f2bbaec	0.67082095
223	0x3e08a359	0.13343562
224	0xbea129f6	-0.31477326
225	0x3da4a0e6	0.080385014
226	0x3dcd357b	0.10019966
227	0x3e278c75	0.16362174
228	0xbd7026a8	-0.058630615
229	0x3ec82465	0.39090267
230	0x3e7a9385	0.24470337
231	0xbe18d69e	-0.1492562
232	0x3e5d3c88	0.21605122
233	0x3f030333	0.51176757
234	0xbdb05c08	-0.086113036
235	0xbd22d256	-0.039751373
236	0x3f324493	0.69635886
237	0x3e6a0a0f	0.228554
238	0xbe576c46	-0.21037397
239	0xbe421d3a	-0.18956462
240	0xbdd188c4	-0.10231164
241	0x3e3fc2db	0.18726675
242	0xbd6064fa	-0.0547838
243	0xbe811d9e	-0.2521791
244	0x3eade4b1	0.3396354
245	0x3ec2de1b	0.38060078
246	0xbe5cc327	-0.2155882
247	0xbe6460ba	-0.22302523
248	0xbe0af36e	-0.13569424
249	0x3eb0aeaf	0.34508273
250	0xbdd0013d	-0.10156486
251	0x3e51c3b0	0.20484805
252	0x3d6f2bed	0.0583915
253	0xbdd3a5fc	-0.103343934
254	0x3d13791d	0.036004175
255	0x3ec5e26b	0.38649306
